ex/lightning_logs/version_7/checkpoints/epoch=5-step=11250.ckpt (torch, 99271 bytes, 6 tensors)

fc.weight f4 [10, 784]
0	0xbbb10440	-0.005402118
1	0x3cb61aea	0.02222963
2	0xbd092707	-0.033484485
3	0x3bdbbd70	0.0067059323
4	0x3a8ef120	0.0010905601
5	0x3ceb83e2	0.02874941
6	0x3c570568	0.013123848
7	0xbcfa57bc	-0.030559413
8	0xbc126d20	-0.00893715
9	0x3c708034	0.0146790035
10	0xbc37e00e	-0.011222852
11	0x3c3cb064	0.011516664
12	0xbcf7972a	-0.030223448
13	0x3bbbdbc0	0.0057329834
14	0xbc9e2665	-0.019305417
15	0x3b80cff0	0.003931038
16	0xbd01515f	-0.031571742
17	0xbbb4e0e4	-0.005519973
18	0xbbba3554	-0.0056826267
19	0xbc78d006	-0.015186315
20	0xba1ca380	-0.0005975291
21	0x3bda9a08	0.006671194
22	0x3d03f2b9	0.0322139
23	0xbd01be57	-0.031675663
24	0x3ca200fc	0.01977586
25	0x3cba6876	0.022754889
26	0xbbe93fd4	-0.0071182046
27	0xbcda114c	-0.026619576
28	0xbc963e5e	-0.018340286
29	0xbb588020	-0.0033035353
30	0x3b6eb470	0.0036423467
31	0xbc968723	-0.018374985
32	0x3d06fc3b	0.03295539
33	0x3cd387da	0.025821615
34	0xbc932d05	-0.017965803
35	0xbbf2d35c	-0.00741045
36	0x3d044e77	0.032301392
37	0xbca17105	-0.019707212
38	0xbf0d22b5	-0.55131084
39	0xbf0e4372	-0.55571663
40	0xbf044093	-0.5166103
41	0xbe0326fa	-0.12807837
42	0xbdb4fc1f	-0.08837151
43	0xbde159ed	-0.1100348
44	0xbbb3b485	-0.005484166
45	0xbb9c4df4	-0.004770035
46	0xbabd5a20	-0.0014446415
47	0xbc5a4406	-0.013321882
48	0xbcda1e83	-0.026625877
49	0xbc3850d2	-0.011249738
50	0x3c1cdd94	0.009574313
51	0xbcf70fa8	-0.030158833
52	0x3c5f7cd0	0.013640597
53	0xbc8e2abc	-0.017354362
54	0xbcfe1c18	-0.031019256
55	0x3c5b7550	0.013394669
56	0xbb978630	-0.0046241507
57	0x3ce7d6c6	0.028300654
58	0x3cb294da	0.021799494
59	0x3fb4f848	1.413827
60	0x4008e3f1	2.1389124
61	0xbaac8aa0	-0.0013163872
62	0xbc447aa9	-0.011992135
63	0xbef294c8	-0.47379136
64	0xbf95aa9a	-1.1692688
65	0xbf97da53	-1.1863502
66	0xc005fb82	-2.0934758
67	0xc08966a7	-4.293781
68	0xc08e53e7	-4.447742
69	0xc05fe3ea	-3.4982858
70	0xc07f77d4	-3.9916887
71	0xc0a675c9	-5.201878
72	0xc02cf912	-2.702702
73	0xc0972f42	-4.724519
74	0xc0849f6f	-4.144462
75	0xbff8da6e	-1.944166
76	0xc00b1efe	-2.1737666
77	0xbf736656	-0.9507803
78	0xbf4734b6	-0.77814806
79	0x3c96560e	0.018351581
80	0xbd0a394c	-0.03374605
81	0x3d06d471	0.032917444
82	0xbca6049e	-0.020265874
83	0x3ce41206	0.027840625
84	0xbb86f518	-0.004118573
85	0xbd0a4042	-0.033752687
86	0x3d04ff4f	0.032470044
87	0x3f883d92	1.064379
88	0x3dffb18b	0.124850355
89	0xbf12f04b	-0.5739791
90	0xbfaf17e1	-1.3679162
91	0xbfdddc2d	-1.7332817
92	0xc00c0522	-2.1878133
93	0xc08f360d	-4.475348
94	0xbf85a397	-1.0440549
95	0xbff6a296	-1.9268367
96	0xc031dde7	-2.7791688
97	0xbf940fcc	-1.1567321
98	0x3e730330	0.23731685
99	0x3e9d0e6b	0.30675063
100	0x3fa9b7b3	1.3259186
101	0xbe37e01a	-0.17956582
102	0xbf1cee1c	-0.61300826
103	0x3e45a7d4	0.19302303
104	0x3e40f6ea	0.1884419
105	0xc017e156	-2.3731284
106	0xc0073ea3	-2.113198
107	0xbf4b9d40	-0.7953682
108	0x3f88190a	1.0632641
109	0x3f5dac09	0.8659063
110	0xbfd9c35a	-1.7012742
111	0xbbd3cb40	-0.0064634383
112	0xbc047b72	-0.008086072
113	0x3bb3ce18	0.005487215
114	0x3c889d9e	0.01667672
115	0x3ea835a6	0.3285343
116	0xbf1f107f	-0.62134546
117	0xc03daf5b	-2.9638278
118	0xbefcf0a7	-0.49402353
119	0xbd1136d7	-0.03545269
120	0x3ef34a63	0.4751769
121	0x3f5d8a79	0.8653942
122	0xbe46809b	-0.19384997
123	0x3f1ea3d2	0.6196872
124	0xbf0232eb	-0.50858945
125	0x3f93743d	1.1519848
126	0xbfa9e32f	-1.3272456
127	0xbfae89fd	-1.3635861
128	0xbfd63df7	-1.673766
129	0xbdd174cb	-0.102273546
130	0x3ef2fe1d	0.47459498
131	0x3efed9cf	0.4977555
132	0xbf563e99	-0.83689266
133	0xbf8363a9	-1.0264789
134	0x3f74d2fb	0.9563443
135	0xbe08665c	-0.13320297
136	0xc03dfb6c	-2.9684706
137	0xc0662aac	-3.5963545
138	0xbfe01fe3	-1.7509731
139	0xbc350240	-0.0110479
140	0xbcb1c803	-0.021701818
141	0xbcb4b64a	-0.022059578
142	0xbeaf96f5	-0.3429486
143	0xbcd1d07d	-0.02561211
144	0xbfaf4a63	-1.3694576
145	0xc0893b6e	-4.2885046
146	0xbfc195bc	-1.512382
147	0xbfe748ea	-1.8069127
148	0xbed172b5	-0.40907827
149	0x3f101b2c	0.5629146
150	0x3e794ee1	0.24346496
151	0xbe246d32	-0.1605728
152	0xbe867d94	-0.26267684
153	0x3ee0e9f4	0.43928492
154	0x3fabdfa0	1.342762
155	0x3f83a71f	1.0285376
156	0x3e7fcd9e	0.2498078
157	0xbf14d624	-0.5813925
158	0x3e259795	0.16171105
159	0x3da11a10	0.07866299
160	0xbda860ae	-0.08221565
161	0xbf860826	-1.0471237
162	0x3feb97d6	1.8405712
163	0xbf0e0f93	-0.55492514
164	0xc0630993	-3.5474594
165	0xc058ed3c	-3.3894796
166	0xbfce3cfa	-1.6112359
167	0xbf37e6a3	-0.718363
168	0xbcb9fa25	-0.022702286
169	0xbccb9cd8	-0.024855062
170	0xbfb51d08	-1.4149485
171	0xbf86f38f	-1.0543078
172	0xbf438b29	-0.76384217
173	0xbfc54459	-1.5411483
174	0xbf5059a8	-0.81386805
175	0xbf9189ff	-1.1370238
176	0xbf8c21ad	-1.0947777
177	0xc02f222f	-2.7364614
178	0xbe1fbc4b	-0.15599172
179	0xbf602311	-0.8755351
180	0x3d8a1226	0.06741743
181	0x3ef1e9a0	0.47248554
182	0x3f309776	0.6898111
183	0x3f00809b	0.50196236
184	0xbc37ccd3	-0.0112182675
185	0x3d0c7fa7	0.034301426
186	0xbdbd862d	-0.092541076
187	0xbdf5c02c	-0.119995445
188	0xbfcc1ab1	-1.5945646
189	0x3f10e4e9	0.5659929
190	0x4018f89a	2.3901734
191	0x3dc89175	0.09793369
192	0xc06c130d	-3.6886628
193	0xc0b0e66b	-5.528127
194	0xc044f314	-3.0773363
195	0x3f2a6b6b	0.66570157
196	0xbd03815c	-0.03210579
197	0x3c981702	0.018565658
198	0xbfac9442	-1.3482745
199	0xbff279ec	-1.8943458
200	0xc02a6e8f	-2.662998
201	0xbf536122	-0.8257009
202	0x3fa014a6	1.2506301
203	0x3f73a058	0.9516654
204	0xbfa9b560	-1.3258476
205	0xbf1848b3	-0.5948593
206	0x3e0ed52f	0.1394851
207	0x3f5c58b0	0.86072826
208	0xbd856887	-0.06514078
209	0xbde8e3d5	-0.113715805
210	0xbf1ff95a	-0.62489855
211	0x3ede430c	0.43410528
212	0x3f15fb87	0.58586925
213	0x3f4e6450	0.80621815
214	0x3ffdf079	1.9839011
215	0x3fafddea	1.3739598
216	0x3e147eaf	0.14501451
217	0xbe176f2a	-0.147885
218	0xbf0cde91	-0.5502711
219	0xbf6853d1	-0.90752894
220	0xc00d5749	-2.2084525
221	0xc03420a7	-2.814493
222	0xc0853756	-4.163005
223	0xbe556ad7	-0.20841537
224	0x3c1c1630	0.009526774
225	0x3d0f7299	0.0350214
226	0x3e0bf7a1	0.13668682
227	0xbfdc111b	-1.719272
228	0xc02e8e00	-2.727417
229	0x3e860d21	0.26181892
230	0x40045534	2.0677004
231	0x3f5a585a	0.85291064
232	0xbefb9656	-0.49138135
233	0xbdbbd297	-0.09171026
234	0x3eacef64	0.3377639
235	0xbf7ea585	-0.9947131
236	0x3f4c03b5	0.79693156
237	0xbe242e8a	-0.16033378
238	0x3f97fd2a	1.1874135
239	0x3f4eae89	0.8073507
240	0x400d470f	2.207462
241	0x3fb13e7f	1.3847197
242	0x3fadfdd5	1.3593088
243	0x3f6f279b	0.9341981
244	0x3f8195c7	1.0123833
245	0x3fad2d3f	1.3529433
246	0x3ec8d497	0.39224693
247	0x3f95af49	1.1694118
248	0xbfeaed30	-1.8353634
249	0xc0901be5	-4.503405
250	0xc0750e52	-3.828999
251	0xbe464656	-0.19362769
252	0x3bfe9c90	0.0077701285
253	0xbe1330e3	-0.14374118
254	0x3f6b0c80	0.9181595
255	0xc00218ac	-2.0327559

fc.bias f4 [10]
0	0xc08bc574	-4.367853
1	0x3c3c7941	0.011503519
2	0x3f3152f4	0.692672
3	0xc0122d38	-2.28401
4	0xbf3dab6b	-0.7408969
5	0x40a2d020	5.087906
6	0xc008e4da	-2.138968
7	0x4031613b	2.7715595
8	0xc0ad7362	-5.420335
9	0xbfd6c03c	-1.6777415

exp_avg f4 [10, 784]
0	0x00000000	0.0
1	0x00000000	0.0
2	0x00000000	0.0
3	0x00000000	0.0
4	0x00000000	0.0
5	0x00000000	0.0
6	0x00000000	0.0
7	0x00000000	0.0
8	0x00000000	0.0
9	0x00000000	0.0
10	0x00000000	0.0
11	0x00000000	0.0
12	0x00000000	0.0
13	0x00000000	0.0
14	0x00000000	0.0
15	0x00000000	0.0
16	0x00000000	0.0
17	0x00000000	0.0
18	0x00000000	0.0
19	0x00000000	0.0
20	0x00000000	0.0
21	0x00000000	0.0
22	0x00000000	0.0
23	0x00000000	0.0
24	0x00000000	0.0
25	0x00000000	0.0
26	0x00000000	0.0
27	0x00000000	0.0
28	0x00000000	0.0
29	0x00000000	0.0
30	0x00000000	0.0
31	0x00000000	0.0
32	0x00000000	0.0
33	0x00000000	0.0
34	0x00000000	0.0
35	0x00000000	0.0
36	0x00000000	0.0
37	0x00000000	0.0
38	0x00000004	6e-45
39	0x00000004	6e-45
40	0x00000004	6e-45
41	0x00000004	6e-45
42	0x00000004	6e-45
43	0x00000004	6e-45
44	0x00000004	6e-45
45	0x00000004	6e-45
46	0x00000000	0.0
47	0x00000000	0.0
48	0x00000000	0.0
49	0x00000000	0.0
50	0x00000000	0.0
51	0x00000000	0.0
52	0x00000000	0.0
53	0x00000000	0.0
54	0x00000000	0.0
55	0x00000000	0.0
56	0x00000000	0.0
57	0x00000000	0.0
58	0x00000000	0.0
59	0x3225ba76	9.64666e-09
60	0x80000004	-6e-45
61	0x00000000	0.0
62	0x80000004	-6e-45
63	0x00000004	6e-45
64	0x00000004	6e-45
65	0x00000004	6e-45
66	0x00004e73	2.8142e-41
67	0x0026eb73	3.574212e-39
68	0x002d5af1	4.165221e-39
69	0xb2b801e0	-2.1421272e-08
70	0xb2728e1f	-1.41185685e-08
71	0x33e10fba	1.04802396e-07
72	0x344a0aa3	1.8816586e-07
73	0x3333a8cd	4.183021e-08
74	0x2cf48449	6.9495837e-12
75	0x91f6bec6	-3.892953e-28
76	0x07869185	2.0247608e-34
77	0x0675ec91	4.625318e-35
78	0x00000004	6e-45
79	0x00000000	0.0
80	0x00000000	0.0
81	0x00000000	0.0
82	0x00000000	0.0
83	0x00000000	0.0
84	0x00000000	0.0
85	0x00000000	0.0
86	0x00000000	0.0
87	0x33a0f29e	7.4947124e-08
88	0x338c3b50	6.530047e-08
89	0x86af1b63	-6.5867925e-35
90	0x864bdb0f	-3.8340995e-35
91	0x00000004	6e-45
92	0x30724d98	8.8149354e-10
93	0x310a2acf	2.0105977e-09
94	0xa8489343	-1.11341625e-14
95	0xb1973758	-4.4009703e-09
96	0x3398193b	7.082641e-08
97	0xb9009448	-0.0001226227
98	0xb9042f7c	-0.0001260619
99	0xb9067142	-0.00012821428
100	0xb881b4cd	-6.184876e-05
101	0xb38c1275	-6.522615e-08
102	0xb4282cb5	-1.5662484e-07
103	0xb4264f80	-1.5488877e-07
104	0xb40f83d7	-1.3365876e-07
105	0xb44da4f0	-1.9152117e-07
106	0xb413b80d	-1.3757399e-07
107	0xabf3cdfb	-1.732336e-12
108	0x258889c2	2.3685588e-16
109	0x8181a5ef	-4.762522e-38
110	0x00000004	6e-45
111	0x00000000	0.0
112	0x00000000	0.0
113	0x00000000	0.0
114	0x00000000	0.0
115	0x80000004	-6e-45
116	0x80000004	-6e-45
117	0x80000004	-6e-45
118	0x2eee47ed	1.08357635e-10
119	0x300ace4d	5.049728e-10
120	0x312a1237	2.474861e-09
121	0xb3843824	-6.156941e-08
122	0xb3baeaca	-8.704008e-08
123	0xb321e8bb	-3.76974e-08
124	0x354fede9	7.7459714e-07
125	0xb9029b69	-0.00012455661
126	0xb90b29e6	-0.00013271681
127	0xb90c16b6	-0.00013359901
128	0xb8e3864d	-0.00010849219
129	0xb7d3dfa4	-2.52573e-05
130	0xb74e95b9	-1.2313417e-05
131	0xb739955a	-1.1061633e-05
132	0xb4856083	-2.4843402e-07
133	0xb4596234	-2.0245426e-07
134	0xb4458b2c	-1.8397685e-07
135	0xb3466476	-4.6191836e-08
136	0x29abd262	7.630421e-14
137	0x28509060	1.1577626e-14
138	0x00000004	6e-45
139	0x00000000	0.0
140	0x00000000	0.0
141	0x00000000	0.0
142	0x203b3f23	1.5860406e-19
143	0x80000004	-6e-45
144	0xa2947d1e	-4.0247953e-18
145	0xa598b168	-2.6488012e-16
146	0x2b386750	6.5513307e-13
147	0x32fa510a	2.9140683e-08
148	0x33095c34	3.1981656e-08
149	0x340af975	1.2943003e-07
150	0x3448da84	1.8705947e-07
151	0x34d1329f	3.8966115e-07
152	0x357524b9	9.132305e-07
153	0xb8de23b2	-0.00010592434
154	0xb90b8696	-0.0001330621
155	0xb91f2393	-0.00015176674
156	0xb989305b	-0.00026166704
157	0xb9a48644	-0.00031380553
158	0xb9ce3ae5	-0.00039335262
159	0xb9d2778a	-0.00040143385
160	0xb9caf87c	-0.00038713578
161	0xb992ddf8	-0.0002801267
162	0xb8e1bb12	-0.000107636806
163	0xb38f2243	-6.6651886e-08
164	0x294997b2	4.476254e-14
165	0x2615799f	5.1859587e-16
166	0x00000004	6e-45
167	0x00000004	6e-45
168	0x00000000	0.0
169	0x00000000	0.0
170	0x05638704	1.0698287e-35
171	0x00000004	6e-45
172	0xa99f8643	-7.084309e-14
173	0xab87becf	-9.645287e-13
174	0x33ffcc54	1.191153e-07
175	0x35008c60	4.788799e-07
176	0x35eca48c	1.763126e-06
177	0x35e23b64	1.6855597e-06
178	0x360bdc8e	2.0840994e-06
179	0x360b14e8	2.0724783e-06
180	0x34410cbb	1.7979157e-07
181	0xb823eab9	-3.908083e-05
182	0xb93386b7	-0.00017120955
183	0xb9a31647	-0.0003110638
184	0xba053e28	-0.00050828094
185	0xba0b6cd9	-0.0005318649
186	0xb9f8c738	-0.00047450676
187	0xb9d50651	-0.00040631232
188	0xb9d143b0	-0.00039914018
189	0xb9d0e2e5	-0.000398419
190	0xb9b9af64	-0.00035416626
191	0xb8ad79eb	-8.271992e-05
192	0x369e7340	4.722184e-06
193	0x369354b8	4.390804e-06
194	0x80000004	-6e-45
195	0x80000004	-6e-45
196	0x00000000	0.0
197	0x00000000	0.0
198	0x00000004	6e-45
199	0x80000004	-6e-45
200	0xaa879605	-2.4084914e-13
201	0x3171aabd	3.516717e-09
202	0x34eae0b2	4.3749384e-07
203	0x36246762	2.449808e-06
204	0x35ce3087	1.5362319e-06
205	0xb58ecf40	-1.0640142e-06
206	0xb5c41aec	-1.4610973e-06
207	0xb5c2ad4a	-1.450456e-06
208	0xb71b3142	-9.250189e-06
209	0xb87e6cdb	-6.06597e-05
210	0xb97726e9	-0.00023570251
211	0xb9ff382e	-0.00048679247
212	0xba000f62	-0.0004885105
213	0xba0306f2	-0.00049982884
214	0xb9efdebb	-0.0004575158
215	0xb9d5befa	-0.00040768815
216	0xb9d2aa0f	-0.00040181025
217	0xb9d098f2	-0.00039786805
218	0xb9ce2d52	-0.00039325148
219	0xb8e79b56	-0.00011043872
220	0x3678e7cb	3.70898e-06
221	0x354825cb	7.45608e-07
222	0x80000004	-6e-45
223	0x80000004	-6e-45
224	0x00000000	0.0
225	0x00000000	0.0
226	0xb7a3f316	-1.954431e-05
227	0xb7c5948a	-2.3553399e-05
228	0xaa9788fe	-2.6918046e-13
229	0xb32a6814	-3.9675868e-08
230	0x360baab5	2.0811979e-06
231	0x35f3f088	1.8174915e-06
232	0xb582a7b5	-9.734564e-07
233	0xb649e6c1	-3.008565e-06
234	0xb68aa0cc	-4.1314397e-06
235	0xb6a3bb0c	-4.8795537e-06
236	0xb7238ff8	-9.749077e-06
237	0xb98ff61b	-0.00027458448
238	0xb9b84b39	-0.0003515126
239	0xb9ddc292	-0.0004229737
240	0xb9fafc70	-0.00047871796
241	0xb9fcae5c	-0.00048195093
242	0xb9fdc884	-0.00048405316
243	0xb9fa5aed	-0.0004775146
244	0xb9cf995f	-0.00039596387
245	0xb99df4eb	-0.00030127852
246	0xb95483e7	-0.00020267033
247	0xb8bddf80	-9.0538524e-05
248	0xb29a0b3a	-1.7933065e-08
249	0xa4154d1f	-3.237455e-17
250	0x00000004	6e-45
251	0x00000004	6e-45
252	0x00000000	0.0
253	0x00000004	6e-45
254	0xb70685d1	-8.018179e-06
255	0xb7282743	-1.0022722e-05

exp_avg_sq f4 [10, 784]
0	0x00000000	0.0
1	0x00000000	0.0
2	0x00000000	0.0
3	0x00000000	0.0
4	0x00000000	0.0
5	0x00000000	0.0
6	0x00000000	0.0
7	0x00000000	0.0
8	0x00000000	0.0
9	0x00000000	0.0
10	0x00000000	0.0
11	0x00000000	0.0
12	0x00000000	0.0
13	0x00000000	0.0
14	0x00000000	0.0
15	0x00000000	0.0
16	0x00000000	0.0
17	0x00000000	0.0
18	0x00000000	0.0
19	0x00000000	0.0
20	0x00000000	0.0
21	0x00000000	0.0
22	0x00000000	0.0
23	0x00000000	0.0
24	0x00000000	0.0
25	0x00000000	0.0
26	0x00000000	0.0
27	0x00000000	0.0
28	0x00000000	0.0
29	0x00000000	0.0
30	0x00000000	0.0
31	0x00000000	0.0
32	0x00000000	0.0
33	0x00000000	0.0
34	0x00000000	0.0
35	0x00000000	0.0
36	0x00000000	0.0
37	0x00000000	0.0
38	0x27f3ec8e	6.770252e-15
39	0x2b2bfc35	6.110141e-13
40	0x2a561e96	1.901763e-13
41	0x29162af6	3.3343953e-14
42	0x2a637954	2.0203744e-13
43	0x27c69acb	5.5123867e-15
44	0x19a27c53	1.6800622e-23
45	0x1899957d	3.9700518e-24
46	0x00000000	0.0
47	0x00000000	0.0
48	0x00000000	0.0
49	0x00000000	0.0
50	0x00000000	0.0
51	0x00000000	0.0
52	0x00000000	0.0
53	0x00000000	0.0
54	0x00000000	0.0
55	0x00000000	0.0
56	0x00000000	0.0
57	0x00000000	0.0
58	0x00000000	0.0
59	0x305f16bb	8.115923e-10
60	0x2ed432d4	9.649673e-11
61	0x00000000	0.0
62	0x15b69aa4	7.3753194e-26
63	0x2b393002	6.5791827e-13
64	0x2cee9afa	6.7815727e-12
65	0x2ced4172	6.743211e-12
66	0x2c677623	3.2892653e-12
67	0x32eb679c	2.7404717e-08
68	0x33207b0e	3.736482e-08
69	0x332d4d4a	4.0349995e-08
70	0x344dca9c	1.9165822e-07
71	0x3285d368	1.5579374e-08
72	0x34055882	1.2418789e-07
73	0x33ac3c1e	8.0203094e-08
74	0x30fa65c0	1.8218813e-09
75	0x2f781dec	2.2566099e-10
76	0x2e9a8c59	7.02804e-11
77	0x2a19fe53	1.3677366e-13
78	0x28850b46	1.4770855e-14
79	0x00000000	0.0
80	0x00000000	0.0
81	0x00000000	0.0
82	0x00000000	0.0
83	0x00000000	0.0
84	0x00000000	0.0
85	0x00000000	0.0
86	0x00000000	0.0
87	0x31ea1275	6.8123946e-09
88	0x306406f8	8.295582e-10
89	0x2e561402	4.8675737e-11
90	0x2e55a113	4.8573656e-11
91	0x2e8c0739	6.367746e-11
92	0x325a94ef	1.2723134e-08
93	0x33dc7aa8	1.02668594e-07
94	0x353e39c3	7.086457e-07
95	0x35ebf764	1.7580865e-06
96	0x359dce43	1.1757442e-06
97	0x358b10da	1.0361211e-06
98	0x358d4aa2	1.052704e-06
99	0x35ca3021	1.506418e-06
100	0x360da347	2.1105677e-06
101	0x3608f27b	2.0406721e-06
102	0x3600186f	1.9087709e-06
103	0x35e8fe65	1.7359386e-06
104	0x35d14618	1.5592113e-06
105	0x354fb076	7.7370294e-07
106	0x34895778	2.558188e-07
107	0x34827c1b	2.4304686e-07
108	0x34f78039	4.610063e-07
109	0x332240b9	3.777743e-08
110	0x2b132dbe	5.228837e-13
111	0x00000000	0.0
112	0x00000000	0.0
113	0x00000000	0.0
114	0x00000000	0.0
115	0x3182b978	3.8045833e-09
116	0x2fe93efe	4.2427212e-10
117	0x31030062	1.9063227e-09
118	0x304db975	7.4842116e-10
119	0x328c6494	1.6343883e-08
120	0x34be373c	3.5430446e-07
121	0x35bca606	1.4055411e-06
122	0x3642cb99	2.9026762e-06
123	0x366ad1a9	3.4990755e-06
124	0x36818caf	3.8608773e-06
125	0x36e559e6	6.8351974e-06
126	0x3717e8ea	9.054531e-06
127	0x373a8efb	1.1119754e-05
128	0x374d1c4b	1.222554e-05
129	0x37424a06	1.1580536e-05
130	0x37111bfd	8.64919e-06
131	0x36f488e8	7.2877046e-06
132	0x36a4f90b	4.9165733e-06
133	0x3653fd4b	3.1588886e-06
134	0x362779e5	2.4955891e-06
135	0x35f054d9	1.7906087e-06
136	0x3516cd73	5.617832e-07
137	0x33c22b9e	9.041763e-08
138	0x296fdb62	5.3258945e-14
139	0x00000000	0.0
140	0x00000000	0.0
141	0x00000000	0.0
142	0x22cf7ecf	5.6241726e-18
143	0x3238e0e1	1.0761341e-08
144	0x310a1a07	2.0096438e-09
145	0x321b2422	9.030403e-09
146	0x338f916b	6.685408e-08
147	0x3492f2d0	2.7371289e-07
148	0x3594c5f3	1.108447e-06
149	0x366a812b	3.4943903e-06
150	0x36e4fbb0	6.82423e-06
151	0x372f8350	1.0461386e-05
152	0x37643e89	1.3604419e-05
153	0x3796c233	1.7971824e-05
154	0x37bd4fd8	2.2567736e-05
155	0x37cc6a84	2.4368295e-05
156	0x37c86032	2.3886652e-05
157	0x37d0ca94	2.4889865e-05
158	0x37ae6ebb	2.079398e-05
159	0x378cc06d	1.6778906e-05
160	0x374ca6d0	1.2198187e-05
161	0x37005c78	7.650924e-06
162	0x3692507c	4.3605087e-06
163	0x3618c272	2.2762947e-06
164	0x34601304	2.0868544e-07
165	0x319ff23c	4.655048e-09
166	0x28f8ad77	2.760876e-14
167	0x264eeff0	7.1795783e-16
168	0x00000000	0.0
169	0x00000000	0.0
170	0x290707cc	2.9982784e-14
171	0x2b9557c1	1.0611443e-12
172	0x3220b20c	9.353709e-09
173	0x33b2bc59	8.323031e-08
174	0x34b755f8	3.4148957e-07
175	0x35d32d3a	1.5733888e-06
176	0x36941085	4.412667e-06
177	0x37264c34	9.9121135e-06
178	0x377a6a1d	1.4925868e-05
179	0x37a41f8a	1.956501e-05
180	0x37b86769	2.1982663e-05
181	0x37dbfaf8	2.62237e-05
182	0x3805aeab	3.1872343e-05
183	0x3815893c	3.5652178e-05
184	0x381b22da	3.6987338e-05
185	0x38106451	3.4425702e-05
186	0x37eaef95	2.8006538e-05
187	0x37c9efbc	2.4072702e-05
188	0x379cb8c3	1.8682686e-05
189	0x375d665d	1.319646e-05
190	0x3700695d	7.653926e-06
191	0x3639b5ef	2.7673047e-06
192	0x35014de3	4.8169585e-07
193	0x34cb3083	3.7846993e-07
194	0x32f0aa05	2.8016993e-08
195	0x2f524923	1.9125372e-10
196	0x00000000	0.0
197	0x00000000	0.0
198	0x2d33710f	1.0200076e-11
199	0x2e1fa51d	3.6299064e-11
200	0x31269120	2.4238673e-09
201	0x344cf586	1.9088301e-07
202	0x35ed5eaa	1.7685427e-06
203	0x369eb00d	4.729262e-06
204	0x3725d35a	9.8839755e-06
205	0x377f07e0	1.5201018e-05
206	0x3797dcfe	1.810351e-05
207	0x37b8e01c	2.2038868e-05
208	0x37ddecd7	2.645554e-05
209	0x38031769	3.1254636e-05
210	0x381351c6	3.512369e-05
211	0x38170a53	3.601082e-05
212	0x3821fd39	3.8621223e-05
213	0x3823d982	3.90648e-05
214	0x380cf39e	3.3605487e-05
215	0x37ea4088	2.7925023e-05
216	0x37c454fd	2.3404597e-05
217	0x379bb8ba	1.856346e-05
218	0x374ae287	1.2092881e-05
219	0x36ad8ad4	5.1719635e-06
220	0x353a4c08	6.940104e-07
221	0x34285b3e	1.5679413e-07
222	0x32afcab7	2.0464865e-08
223	0x306961c5	8.4903845e-10
224	0x00000000	0.0
225	0x00000000	0.0
226	0x2f210371	1.4644087e-10
227	0x2fc22366	3.5313547e-10
228	0x33b335d4	8.345128e-08
229	0x35478b84	7.43363e-07
230	0x367f22d1	3.8018227e-06
231	0x3709244f	8.17429e-06
232	0x376020a6	1.3359042e-05
233	0x3783ee52	1.5727393e-05
234	0x37aa01c7	2.0266407e-05
235	0x37dba44b	2.618334e-05
236	0x37e954ae	2.7815197e-05
237	0x3804e7d6	3.1687166e-05
238	0x38085d86	3.2512027e-05
239	0x380f6394	3.4186596e-05
240	0x3816edec	3.598437e-05
241	0x381659ce	3.5846424e-05
242	0x380416ec	3.14926e-05
243	0x37f46ff5	2.91392e-05
244	0x37ceb856	2.4642952e-05
245	0x37b86f82	2.1986434e-05
246	0x377a6252	1.4924053e-05
247	0x36ee6404	7.104596e-06
248	0x358ee6c2	1.0646984e-06
249	0x33773edb	5.7566336e-08
250	0x33052209	3.099743e-08
251	0x26c44a31	1.3620342e-15
252	0x00000000	0.0
253	0x284b5e71	1.1289242e-14
254	0x2dd4534d	2.4138603e-11
255	0x2f5eb3ef	2.0254708e-10

exp_avg f4 [10]
0	0xba0bcba3	-0.00053327734
1	0xb90a0eab	-0.0001316617
2	0x3b18bbf2	0.0023305384
3	0xbb18fecd	-0.0023345232
4	0x3a22a48f	0.0006204331
5	0x3c19b6dc	0.009381976
6	0x39d71194	0.00041021092
7	0x3b3a474b	0.0028423842
8	0xb9417d82	-0.0001845267
9	0xbc2b3b29	-0.010451117

exp_avg_sq f4 [10]
0	0x389bc894	7.4283365e-05
1	0x38c47e2c	9.36951e-05
2	0x393d17d9	0.00018033329
3	0x39837c11	0.00025078704
4	0x398069d8	0.00024492922
5	0x39878125	0.00025845427
6	0x3909e258	0.00013149658
7	0x3952ac6a	0.0002009139
8	0x39e02bf3	0.00042757354
9	0x39feb7fb	0.0004858373
