ex/lightning_logs/version_5/checkpoints/epoch=6-step=13125.ckpt (torch, 99271 bytes, 6 tensors)

fc.weight f4 [10, 784]
0.03344531 0.022571854 -0.01451583 -0.034596875 -0.007824354 0.020952437 -0.031771224 -0.0079627335
0.026433084 0.004276596 0.011578973 0.005228948 -0.00041392818 0.022896163 0.01707945 -0.0016672648
0.020653889 0.031950947 0.03360116 0.02752601 0.030928414 0.014637202 0.0011384562 0.013115253
-0.006719347 -0.03503818 -0.025389323 -0.033906188 0.010489859 -0.0031084158 -0.033276368 -0.032010067
-0.030429795 -0.011213183 -0.009401089 0.011688475 0.0136554465 -0.009717073 -0.018028822 -0.014124727
0.008600701 -0.09893391 -0.07408525 -0.08461966 -0.02779888 0.028194074 -0.0096914135 0.0068106353
-0.004719015 0.024841953 0.030918512 -0.006262336 0.0072017834 -0.03454659 -0.018911904 0.014101081
-0.005416207 -0.029124657 0.020610299 -1.1898988 0.03437605 -0.028117867 -0.5731794 -0.48298502
-1.0343192 -1.2119702 -2.5018637 -3.8258643 -3.9626105 -2.6816103 -4.3291636 -6.306454
-6.125229 -5.55068 -4.842593 -1.968171 -3.3325584 -2.9076893 -2.319291 -0.03147849
-0.0011677742 -0.007093357 0.03114244 -0.016438536 0.029189344 0.02402141 0.035598133 -1.2497606
-0.9003092 -0.12638012 -0.975606 -1.9701844 -3.2777107 -5.3228116 -4.465148 -5.5010796
-3.1325352 -2.1689548 -1.2759978 -0.51610446 -0.62858135 -3.4402657 -3.2570791 -2.6721058
-2.2423797 -3.058658 -3.2543123 -1.108951 -3.3344412 0.6691534 -0.6132008 0.0021551922
-0.022338307 0.030416276 -0.008246537 1.5527204 0.24606264 -2.1262484 -1.6438234 -0.074144416
1.0577444 -1.9870775 -2.1047873 0.97911435 -0.5033258 0.051588897 -0.087833405 -1.0686542
-0.94608414 -0.30586037 0.7261036 -0.05030663 -1.9778057 -1.4105712 0.3530033 -0.6012905
-2.2368317 -2.8155754 -0.6142375 0.027665254 -0.029594176 -0.028801413 0.009141155 0.9580592
-0.26341328 -3.8226604 -3.171237 -1.1602069 0.0871944 0.121079236 0.037117627 -1.1966847
-0.6397572 -0.048311807 1.1631327 0.6226983 0.45176208 -0.47934183 0.25228676 0.6232743
-0.20101207 -1.3854839 0.18474528 -0.460175 -1.4026648 -3.360026 -1.6305958 -1.6712455
0.00020740554 0.017453782 -0.005656235 -0.118456006 0.50993913 -1.2734193 -0.7734238 -1.6099665
-1.0126591 -1.8569996 0.3557388 -1.0495461 0.5148021 0.66183805 1.6717955 0.98264664
0.23273487 -0.07712253 0.38562885 0.72278583 -0.6782662 1.1970723 1.6707776 0.12323288
-3.0769255 -6.826557 -3.3086982 -0.56339544 -0.027714599 0.0045774207 -0.03350963 -1.8454965
-0.57540053 -1.1142619 -0.17289372 0.35967126 -1.427248 -0.28372934 1.1964127 0.43819916
0.21336824 0.2879029 -0.008899923 0.5543874 1.0269554 0.995318 1.4557375 1.6158667
0.24970613 0.013001881 -1.444894 -1.7638341 -2.7441475 -3.5673077 -5.497242 1.2278041
-0.00993865 -0.03119399 1.1924632 -1.7817372 -3.0059435 -1.2209775 1.203426 1.5143701
-0.19860479 -0.20497692 0.42067903 -1.6035743 0.89357585 0.85018957 0.95624214 1.3082693
2.562931 1.7292222 1.5718862 0.9238166 0.4149057 1.4168702 -0.22906998 0.6572271
-1.6499856 -6.0712776 -5.2630367 -0.03445403 0.0058687516 -0.1156712 0.99856794 -2.6687765
00000000: f3fd 083d 9ce8 b83c ced3 6dbc 74b5 0dbd
00000010: b831 00bc 72a4 ab3c 8b22 02bd 2076 02bc
00000020: 328a d83c b022 8c3b bcb5 3d3c 9857 ab3b
00000030: 8004 d9b9 bc90 bb3c 34ea 8b3c 2088 daba
00000040: 5832 a93c ffde 023d 5fa1 093d 3a7e e13c
00000050: 965d fd3c e0d0 6f3c 4038 953a 5ce1 563c
00000060: f82d dcbb 3284 0fbd 45fd cfbc 37e1 0abd
00000070: a8dd 2b3c 90b6 4bbb cd4c 08bd fd1c 03bd
00000080: e847 f9bc 80b7 37bc 0607 1abc 0481 3f3c
00000090: 18bb 5f3c 5c34 1fbc 2eb1 93bc 666b 67bc
000000a0: f4e9 0c3c dd9d cabd 02ba 97bd 134d adbd
000000b0: 7aba e3bc 42f7 e63c bcc8 1ebc c02b df3b
000000c0: f8a1 9abb 5a81 cb3c d248 fd3c 4834 cdbb
000000d0: f0fc eb3b ba80 0dbd 23ed 9abc 3808 673c
000000e0: 707a b1bb d596 eebc eed6 a83c 9b4e 98bf
000000f0: e7cd 0c3d 7157 e6bc e3bb 12bf d049 f7be
00000100: 9264 84bf d721 9bbf 891e 20c0 f6da 74c0
00000110: 699b 7dc0 819f 2bc0 8288 8ac0 79ce c9c0
00000120: e001 c4c0 2c9f b1c0 86f6 9ac0 07ed fbbf
00000130: a348 55c0 9517 3ac0 446f 14c0 97ef 00bd
00000140: 0010 99ba 646f e8bb 6e1e ff3c 1caa 86bc
00000150: 7e1e ef3c 8cc8 c43c 59cf 113d 28f8 9fbf
00000160: aa7a 66bf ca69 01be 51c1 79bf 012f fcbf
00000170: 03c6 51c0 7954 aac0 7ee2 8ec0 d808 b0c0
00000180: 757b 48c0 28d0 0ac0 e553 a3bf 6c1f 04bf
00000190: b5ea 20bf 502d 5cc0 fc73 50c0 c803 2bc0
000001a0: 2683 0fc0 0dc1 43c0 a746 50c0 1bf2 8dbf
000001b0: 7c67 55c0 a34d 2b3f bafa 1cbf 203e 0d3b
000001c0: d3fe b6bc 8e2b f93c 7c1c 07bc 8bbf c63f
000001d0: d8f7 7b3e 7414 08c0 ce68 d2bf 07d9 97bd
000001e0: 2b64 873f 8e58 febf d6b4 06c0 3da7 7a3f
000001f0: f6d9 00bf e14e 533d 00e2 b3bd a9c9 88bf
00000200: 9232 72bf bb99 9cbe ede1 393f 530e 4ebd
00000210: bd28 fdbf 998d b4bf d9bc b43e 2dee 19bf
00000220: 4028 0fc0 6332 34c0 ab3e 1dbf 3ea2 e23c
00000230: 7c6f f2bc f1f0 ebbc c8c4 153c 5e43 753f
00000240: 1bde 86be 78a6 74c0 8cf5 4ac0 a981 94bf
00000250: fa92 b23d 64f8 f73d a708 183d f72c 99bf
00000260: 21c7 23bf 9ae2 45bd 88e1 943f 2869 1f3f
00000270: 5c4d e73e 4b6c f5be bb2b 813e e88e 1f3f
00000280: 1cd6 4dbe 8957 b1bf de2d 3d3e 0f9c ebbe
00000290: 858a b3bf aa0a 57c0 5db7 d0bf 5feb d5bf
000002a0: 007b 5939 3cfb 8e3c f057 b9bb 1099 f2bd
000002b0: 5f8b 023f 67ff a2bf 1aff 45bf 6213 cebf
000002c0: d09e 81bf 2ab2 edbf 6523 b63e 8757 86bf
000002d0: 12ca 033f 386e 293f 65fd d53f bb8e 7b3f
000002e0: 0d52 6e3e 6bf2 9dbd 2571 c53e 7e08 393f
000002f0: dba2 2dbf aa39 993f 0adc d53f 8561 fc3d
00000300: 59ec 44c0 2873 dac0 b6c1 53c0 af3a 10bf
00000310: ba09 e3bc 30fe 953b 6541 09bd 3b39 ecbf
00000320: 734d 13bf 22a0 8ebf 0d0b 31be d526 b83e
00000330: 10b0 b6bf f944 91be 0d24 993f a45b e03e
00000340: 347d 5a3e 0268 933e fcd0 11bc 55ec 0d3f
00000350: 4673 833f 29cd 7e3f 9b55 ba3f b8d4 ce3f
00000360: f7b2 7f3e d705 553c 49f2 b8bf 51c5 e1bf
00000370: 1da0 2fc0 c54e 64c0 68e9 afc0 af28 9d3f
00000380: b8d5 22bc 8a8a ffbc a2a2 983f f70f e4bf
00000390: 6161 40c0 fe48 9cbf dd09 9a3f e1d6 c13f
000003a0: 0e5f 4bbe 78e5 51be 3e63 d73e ec41 cdbf
000003b0: 63c1 643f 06a6 593f 49cc 743f 5e75 a73f
000003c0: 1007 2440 2757 dd3f 9133 c93f 3f7f 6c3f
000003d0: 856e d43e 015c b53f 5291 6abe 0940 283f
000003e0: ba32 d3bf e847 c2c0 cc6a a8c0 ab1f 0dbd
000003f0: a84e c03b 06e5 ecbd 26a2 7f3f 3ccd 2ac0

fc.bias f4 [10]
-5.437575 -1.2525991 -0.13014284 -3.4865794 -2.4962513 4.408477 -0.09789325 -0.09747854
-8.485724 -3.8230872
00000000: 9d00 aec0 2b55 a0bf 2a44 05be 1e24 5fc0
00000010: 95c2 1fc0 3e12 8d40 427c c8bd d4a2 c7bd
00000020: 87c5 07c1 76ad 74c0

exp_avg f4 [10, 784]
0.0 0.0 0.0 0.0 0.0 0.0 0.0 0.0
0.0 0.0 0.0 0.0 0.0 0.0 0.0 0.0
0.0 0.0 0.0 0.0 0.0 0.0 0.0 0.0
0.0 0.0 0.0 0.0 0.0 0.0 0.0 0.0
0.0 0.0 0.0 0.0 0.0 0.0 0.0 0.0
0.0 6e-45 6e-45 6e-45 0.0 0.0 0.0 0.0
0.0 0.0 0.0 0.0 0.0 0.0 0.0 0.0
0.0 0.0 0.0 6e-45 0.0 0.0 6e-45 6e-45
6e-45 6e-45 9.7797e-41 1.2420081e-38 1.4473797e-38 -4.218889e-09 -2.780632e-09 2.1269319e-08
4.1741026e-07 6.513728e-07 1.3027447e-07 -1.7518293e-26 6e-45 6e-45 6e-45 0.0
0.0 0.0 0.0 0.0 0.0 0.0 0.0 6e-45
6e-45 -6e-45 -6e-45 6e-45 -1.09723604e-13 -1.3648541e-13 -1.8933653e-13 3.7615848e-06
1.3296078e-05 0.000118437274 0.00014962252 -3.324128e-05 -9.182675e-05 -0.00012030418 -0.00018128463 -0.0001814336
-0.00010316827 -9.249776e-06 -7.6524856e-11 -1.7782135e-11 -6.5162e-41 -1.8654e-41 6e-45 0.0
0.0 0.0 0.0 -6e-45 -6e-45 2.90779e-40 -1.3554177e-29 9.334552e-12
-1.2920387e-06 -8.398325e-06 -4.4702985e-05 -0.000154805 -5.464664e-05 0.00011517802 0.00047102533 0.0004086556
0.00054013944 0.00033196894 0.00018338494 -0.00015711627 -0.00018035134 -2.160582e-05 -1.3817868e-10 -1.6550452e-11
-1.6042998e-20 -1.787e-42 6e-45 0.0 0.0 0.0 0.0 -6e-45
-6e-45 7.2334066e-13 3.1332341e-12 1.0784072e-11 -2.1320171e-05 -0.00014988778 -0.00015839848 -0.00011990868
0.00028668458 0.00081138965 0.0008325703 0.00054375315 0.00056002964 0.00073651865 2.3791867e-05 1.250775e-06
3.5407975e-05 0.0005048331 0.0006496566 0.00013245275 -3.4119588e-20 -6e-45 6e-45 6e-45
0.0 0.0 0.0 6e-45 -6e-45 2.266469e-12 -7.003343e-10 -1.0875148e-08
-3.8999638e-06 -4.9717386e-05 -3.3870267e-05 0.00059466844 0.00042982167 0.00019330846 0.00038119563 0.0013951606
0.0025797244 0.003184262 0.002937929 0.002889069 0.0010306748 9.397014e-05 0.00051908026 0.00042641233
5.1323914e-06 4.7722256e-06 6.1867843e-34 -6e-45 0.0 0.0 0.0 -6e-45
-3.291393e-30 2.6618944e-12 -1.94196e-06 -3.1682383e-05 -5.0040333e-05 -0.00019607028 0.00051856664 0.00044615555
0.00038718816 0.00055233616 0.0025294854 0.003444655 0.0033165873 0.0032514413 0.0034212423 0.0033224504
0.002405113 0.0013125087 6.160826e-05 0.00055337575 0.00027125882 8.1037786e-07 6.590353e-33 -6e-45
0.0 0.0 -5.147407e-10 -6.203285e-10 -9.081404e-25 -4.562119e-09 -8.420524e-06 -0.00016345445
-0.00015774812 -0.00045812054 3.6174763e-06 0.0007144344 0.0011304064 0.001972779 0.0028367925 0.0027346038
0.0027316187 0.0027298487 0.0031709871 0.0034027714 0.0030105277 0.0013956422 -0.00055260066 -0.000339661
0.00012693756 -3.1145607e-13 1.4256769e-33 0.0 0.0 6e-45 -2.1117567e-10 -2.6396957e-10
00000000: 0000 0000 0000 0000 0000 0000 0000 0000
00000010: 0000 0000 0000 0000 0000 0000 0000 0000
00000020: 0000 0000 0000 0000 0000 0000 0000 0000
00000030: 0000 0000 0000 0000 0000 0000 0000 0000
00000040: 0000 0000 0000 0000 0000 0000 0000 0000
00000050: 0000 0000 0000 0000 0000 0000 0000 0000
00000060: 0000 0000 0000 0000 0000 0000 0000 0000
00000070: 0000 0000 0000 0000 0000 0000 0000 0000
00000080: 0000 0000 0000 0000 0000 0000 0000 0000
00000090: 0000 0000 0000 0000 0000 0000 0000 0000
000000a0: 0000 0000 0400 0000 0400 0000 0400 0000
000000b0: 0000 0000 0000 0000 0000 0000 0000 0000
000000c0: 0000 0000 0000 0000 0000 0000 0000 0000
000000d0: 0000 0000 0000 0000 0000 0000 0000 0000
000000e0: 0000 0000 0000 0000 0000 0000 0400 0000
000000f0: 0000 0000 0000 0000 0400 0000 0400 0000
00000100: 0400 0000 0400 0000 9e10 0100 223e 8700
00000110: 0f9b 9d00 bdf5 90b1 6515 3fb1 bab3 b632
00000120: 6e18 e034 ffd9 2e35 93e1 0b34 267e ad94
00000130: 0400 0000 0400 0000 0400 0000 0000 0000
00000140: 0000 0000 0000 0000 0000 0000 0000 0000
00000150: 0000 0000 0000 0000 0000 0000 0400 0000
00000160: 0400 0000 0400 0080 0400 0080 0400 0000
00000170: 5a13 f7a9 3eab 19aa 8a2c 55aa 896f 7c36
00000180: 3812 5f37 8761 f838 fde3 1c39 8d6c 0bb8
00000190: 1c93 c0b8 d14b fcb8 3917 3eb9 363f 3eb9
000001a0: 0b5c d8b8 7c2f 1bb7 aa47 a8ae cf69 9cad
000001b0: a5b5 0080 0034 0080 0400 0000 0000 0000
000001c0: 0000 0000 0000 0000 0000 0000 0400 0080
000001d0: 0400 0080 932a 0300 a874 898f 1637 242d
000001e0: 1d6a adb5 88e6 0cb7 777f 3bb8 2753 22b9
000001f0: 6234 65b8 bb8b f138 f3f3 f639 d340 d639
00000200: 2598 0d3a 1e0c ae39 054b 4039 94bf 24b9
00000210: b21c 3db9 253e b5b7 d7ed 17af 4e94 91ad
00000220: 9785 979e fb04 0080 0400 0000 0000 0000
00000230: 0000 0000 0000 0000 0000 0000 0400 0080
00000240: 0400 0080 309a 4b2b 547b 5c2c 25b7 3d2d
00000250: b8d8 b2b7 322b 1db9 c517 26b9 7b77 fbb8
00000260: 274e 9639 70b3 543a d940 5a3a a88a 0e3a
00000270: f4ce 123a ee12 413a a594 c737 4de0 a735
00000280: 0683 1438 c756 043a b74d 2a3a 04e3 0a39
00000290: 0d20 219f 0400 0080 0400 0000 0400 0000
000002a0: 0000 0000 0000 0000 0000 0000 0400 0000
000002b0: 0400 0080 137d 1f2c a581 40b0 68d5 3ab2
000002c0: 6fdc 82b6 a387 50b8 ec0f 0eb8 86e3 1b3a
000002d0: b059 e139 d8b2 4a39 36db c739 d2dd b63a
000002e0: 9810 293b 0daf 503b 458a 403b 8956 3d3b
000002f0: b517 873a d611 c538 e312 083a 1890 df39
00000300: e836 ac36 1b21 a036 5797 4d08 0400 0080
00000310: 0000 0000 0000 0000 0000 0000 0400 0080
00000320: c783 858e 6d50 3b2c 9e52 02b6 b3e2 04b8
00000330: 66e2 51b8 3798 4db9 6bf0 073a fce9 e939
00000340: 84ff ca39 a7ca 103a b9c5 253b b9bf 613b
00000350: 1a5b 593b 2216 553b ec36 603b 78bd 593b
00000360: 1a9f 1d3b 7c08 ac3a af33 8138 6b10 113a
00000370: be37 8e39 be88 5935 54e0 080a 0400 0080
00000380: 0000 0000 0000 0000 a87d 0db0 bd83 2ab0
00000390: 2687 8c97 d3c0 9cb1 e045 0db7 f864 2bb9
000003a0: 3069 25b9 e62f f0b9 c5c3 7236 e248 3b3a
000003b0: 252a 943a bd49 013b 7be9 393b 0a37 333b
000003c0: f504 333b 43e7 323b 56d0 4f3b 0801 5f3b
000003d0: 464c 453b fbed b63a 67dc 10ba 8714 b2b9
000003e0: 8b1a 0539 8d55 afaa 97e1 ec08 0000 0000
000003f0: 0000 0000 0400 0000 ab30 68af 6a1e 91af

exp_avg_sq f4 [10, 784]
0.0 0.0 0.0 0.0 0.0 0.0 0.0 0.0
0.0 0.0 0.0 0.0 0.0 0.0 0.0 0.0
0.0 0.0 0.0 0.0 0.0 0.0 0.0 0.0
0.0 0.0 0.0 0.0 0.0 0.0 0.0 0.0
0.0 0.0 0.0 0.0 0.0 0.0 0.0 0.0
0.0 4.1808746e-15 2.533261e-14 6.911724e-16 0.0 0.0 0.0 0.0
0.0 0.0 0.0 0.0 0.0 0.0 0.0 0.0
0.0 0.0 0.0 2.3826316e-12 0.0 0.0 4.6988494e-12 5.9096196e-12
7.894061e-13 3.0575523e-13 7.281845e-12 1.1448337e-07 1.555285e-07 8.4444146e-08 2.9804534e-07 9.1935e-09
3.8074407e-07 9.2351e-07 3.7083886e-08 2.6120062e-10 4.3169232e-10 4.0439788e-10 4.2539146e-11 0.0
0.0 0.0 0.0 0.0 0.0 0.0 0.0 1.4381807e-10
1.0917808e-10 3.4553191e-12 8.101334e-12 5.128008e-09 1.414376e-08 1.12180246e-07 7.428382e-07 1.609995e-06
1.5389124e-06 1.6777639e-06 2.022521e-06 9.571359e-07 3.550966e-06 3.2489697e-06 1.2595763e-06 1.0520458e-06
1.0152354e-06 3.8341702e-07 1.7747321e-07 3.112106e-08 4.763573e-10 7.607971e-09 4.6067716e-10 0.0
0.0 0.0 0.0 5.0340603e-11 3.153968e-12 4.0656736e-09 7.57402e-09 1.0091924e-07
6.19624e-07 1.8373825e-06 2.7870003e-06 4.097879e-06 5.6712897e-06 7.193734e-06 9.195266e-06 1.1425006e-05
1.2961353e-05 9.952689e-06 7.254338e-06 6.228631e-06 4.449307e-06 2.770607e-06 1.5323257e-06 6.964345e-07
1.4652748e-07 6.7687407e-09 4.692281e-11 0.0 0.0 0.0 0.0 1.4687934e-10
1.4717972e-12 1.7074322e-08 2.9236259e-07 6.134208e-07 2.1048168e-06 3.856369e-06 7.308218e-06 9.899197e-06
1.3457388e-05 1.6960956e-05 2.1704733e-05 2.2956465e-05 2.226166e-05 2.331869e-05 1.8067554e-05 1.4044372e-05
1.12109055e-05 6.9149437e-06 3.6116517e-06 1.2024251e-06 3.0795337e-07 1.8813342e-09 4.5219384e-12 2.63023e-11
0.0 0.0 0.0 2.6815538e-14 9.1067837e-10 2.5074158e-07 8.375344e-07 2.210748e-06
4.7330213e-06 9.492718e-06 1.2978696e-05 1.5969637e-05 1.9122685e-05 2.3288918e-05 2.9261659e-05 3.159873e-05
3.1247215e-05 3.0515426e-05 2.727645e-05 2.2878927e-05 1.7770175e-05 1.1117729e-05 6.4180285e-06 2.3216883e-06
7.5339904e-07 4.2971894e-07 3.0937024e-09 1.9902262e-09 0.0 0.0 0.0 3.4760392e-11
1.1342315e-08 3.1052514e-07 1.4642491e-06 3.342743e-06 7.511963e-06 1.2408932e-05 1.5654558e-05 1.9451692e-05
2.4488427e-05 2.7104743e-05 3.0766554e-05 3.0209621e-05 3.0470288e-05 3.2947974e-05 3.1694468e-05 2.820699e-05
2.3963345e-05 1.7960307e-05 1.0782274e-05 5.4725556e-06 1.2829598e-06 6.739016e-07 3.225445e-07 8.248073e-09
0.0 0.0 9.088381e-14 3.5160913e-10 7.594532e-08 8.546631e-07 2.645552e-06 5.8593664e-06
1.1333414e-05 1.6618498e-05 2.0513822e-05 2.6364347e-05 2.698411e-05 2.7057848e-05 2.7195105e-05 2.8346341e-05
3.106048e-05 3.311737e-05 2.9731887e-05 2.8465358e-05 2.4662371e-05 2.055721e-05 1.1902037e-05 5.6571134e-06
9.655799e-07 1.0671387e-07 1.7269581e-08 0.0 0.0 1.8847334e-15 1.5296665e-14 6.7149303e-10
00000000: 0000 0000 0000 0000 0000 0000 0000 0000
00000010: 0000 0000 0000 0000 0000 0000 0000 0000
00000020: 0000 0000 0000 0000 0000 0000 0000 0000
00000030: 0000 0000 0000 0000 0000 0000 0000 0000
00000040: 0000 0000 0000 0000 0000 0000 0000 0000
00000050: 0000 0000 0000 0000 0000 0000 0000 0000
00000060: 0000 0000 0000 0000 0000 0000 0000 0000
00000070: 0000 0000 0000 0000 0000 0000 0000 0000
00000080: 0000 0000 0000 0000 0000 0000 0000 0000
00000090: 0000 0000 0000 0000 0000 0000 0000 0000
000000a0: 0000 0000 c3a1 9627 062d e428 8637 4726
000000b0: 0000 0000 0000 0000 0000 0000 0000 0000
000000c0: 0000 0000 0000 0000 0000 0000 0000 0000
000000d0: 0000 0000 0000 0000 0000 0000 0000 0000
000000e0: 0000 0000 0000 0000 0000 0000 ada9 272c
000000f0: 0000 0000 0000 0000 7953 a52c 1fed cf2c
00000100: b432 5e2b f91f ac2a 841a 002d e6d9 f533
00000110: 59ff 2634 a957 b533 0a03 a034 71f1 1d32
00000120: 1169 cc34 20e7 7735 2a46 1f33 b898 8f2f
00000130: 4b53 ed2f f151 de2f d216 3b2e 0000 0000
00000140: 0000 0000 0000 0000 0000 0000 0000 0000
00000150: 0000 0000 0000 0000 0000 0000 3021 1e2f
00000160: cc15 f02e 7f25 732c 2a85 0e2d 6f32 b031
00000170: eafc 7232 bee7 f033 7467 4735 0217 d835
00000180: a18c ce35 872f e135 a5ba 0736 f076 8035
00000190: 224d 6e36 e008 5a36 b60e a935 0534 8d35
000001a0: 3943 8835 6fd8 cd34 778f 3e34 f8a9 0533
000001b0: aaf0 0230 36b4 0232 8c42 fd2f 0000 0000
000001c0: 0000 0000 0000 0000 0000 0000 7b66 5d2e
000001d0: d6f0 5d2c 0bb2 8b31 e41e 0232 f0b8 d833
000001e0: 3d54 2635 fb9b f635 4d08 3b36 8380 8936
000001f0: 024c be36 b461 f136 5e45 1a37 07ae 3f37
00000200: 9674 5937 79fa 2637 4a6a f336 88ff d036
00000210: 424b 9536 aaee 3936 4faa cd35 9df2 3a35
00000220: 2b55 1d34 7992 e831 635e 4e2e 0000 0000
00000230: 0000 0000 0000 0000 0000 0000 dc7e 212f
00000240: 1523 cf2b d5aa 9232 02f6 9c34 f5a9 2435
00000250: 7a40 0d36 f565 8136 1d39 f536 ba14 2637
00000260: 0bc7 6137 6047 8e37 8f12 b637 a292 c037
00000270: 8dbe ba37 819c c337 c78f 9737 1ea0 6b37
00000280: 7916 3c37 ea06 e836 b45f 7236 0363 a135
00000290: ca54 a534 c848 0131 001a 9f2c 845b e72d
000002a0: 0000 0000 0000 0000 0000 0000 6c88 f128
000002b0: 4b53 7a30 a99d 8634 edd2 6035 5d5c 1436
000002c0: 58d0 9e36 ea42 1f37 13bf 5937 89f6 8537
000002d0: a769 a037 925c c337 ef76 f537 e188 0438
000002e0: 710f 0338 61fb ff37 bbcf e437 1fec bf37
000002f0: 2911 9537 4886 3a37 725a d736 4dce 1b36
00000300: 303d 4a35 1fb4 e634 fd98 5431 6ec4 0831
00000310: 0000 0000 0000 0000 0000 0000 b9e0 182e
00000320: 07dc 4232 40b6 a634 3787 c435 e353 6036
00000330: 450f fc36 f52f 5037 e851 8337 312c a337
00000340: 7f6c cd37 fe5e e337 560b 0138 ab6a fd37
00000350: 729a ff37 9e31 0a38 adef 0438 0d9e ec37
00000360: e404 c937 77a9 9637 84e5 3437 e5a0 b736
00000370: 2a32 ac35 2ae6 3435 2e2a ad34 69b3 0d32
00000380: 0000 0000 0000 0000 f3a6 cc29 964c c12f
00000390: 6217 a333 006c 6535 3d8a 3136 939b c436
000003a0: a424 3e37 f467 8b37 1915 ac37 0129 dd37
000003b0: ef5b e237 49fa e237 0b21 e437 4ec9 ed37
000003c0: f046 0238 81e7 0a38 be68 f937 e4c8 ee37
000003d0: 0ae2 ce37 4672 ac37 dcae 4737 3cd2 bd36
000003e0: 1399 8135 922a e533 3658 9432 0000 0000
000003f0: 0000 0000 32cf 0727 b5c7 8928 1f94 3830

exp_avg f4 [10]
0.0029751963 -0.0018066412 6e-45 -0.002958618 0.0004232227 0.0011881012 6e-45 6e-45
0.0045272675 -0.008368645
00000000: 83fb 423b d2cc ecba 0400 0000 60e5 41bb
00000010: fde3 dd39 10ba 9b3a 0400 0000 0400 0000
00000020: 7959 943b a41c 09bc

exp_avg_sq f4 [10]
6.761603e-05 8.53809e-05 1.7769588e-13 0.00016521796 0.00024261938 0.00019506871 1.0543391e-11 1.2590416e-12
0.00037519154 0.00042960167
00000000: 14cd 8d38 860e b338 5a11 482a 5c3e 2d39
00000010: a567 7e39 5c8b 4c39 367b 392d c131 b12b
00000020: 5bb5 c439 293c e139
