ex/lightning_logs/version_9/checkpoints/epoch=4-step=9375.ckpt (torch, 99271 bytes, 6 tensors)

fc.weight f4 [10, 784]
0.024455737 0.032232527 -0.034832474 -0.013404148 -0.014365222 0.03125162 -0.022970894 -0.006144576
-0.019447733 -0.0046777297 0.02369288 -0.016243037 0.02626568 -0.0050350167 -0.021397308 0.024153192
-0.014718125 -0.023350645 -0.013610236 0.02319077 -0.032944866 0.007379256 0.032066714 -0.029949777
-0.012326531 0.025651604 -0.0060878918 0.0035127886 0.026266746 -0.0014832802 0.011193559 -0.035492912
0.005429417 0.026423592 0.010516822 -0.008662263 0.021043163 0.034753744 0.026803758 -0.00898386
-0.020491242 -0.09090315 -0.08356811 -0.13120793 2.4855137e-05 0.025292527 0.015776988 -0.03325961
-0.029895063 0.0154320225 0.005447503 0.008111551 -0.0009937994 0.013991598 -0.017403804 -0.011156168
-0.0011207722 -0.011837551 -0.015495084 -0.84720874 0.60242236 0.010054611 -0.782838 -0.1976629
-1.1263468 -1.7355304 -1.590956 -2.5509117 -2.758172 -2.4253511 -2.9140694 -4.575344
-4.1746464 -3.9620512 -3.2727492 -1.8121594 -1.9949462 -1.1767296 -0.6131338 0.0020080805
0.03310762 -0.030732403 0.024911009 0.035521884 -5.4955482e-05 0.014795259 -0.027388591 -1.0682325
-0.98774946 -0.12764686 -1.134649 -0.7969003 -3.5338705 -5.644709 -4.4400725 -3.8901148
-2.086909 -1.0439487 -1.8220356 -0.74526167 -0.41130856 -1.7022198 -1.9564248 -0.7350978
-1.8609829 -3.1415622 -0.76790863 0.5989876 -0.39162028 1.1377252 -0.61718404 -0.015704066
-0.025533281 0.025117174 0.0046843924 0.22731544 -0.023201538 -1.7474887 -1.4190066 -0.38556862
-0.05755761 -1.7428763 -1.6098273 0.30596602 -1.0603232 0.7246962 -0.19127272 -0.5777897
-0.72189164 0.2261082 0.9303575 -0.36016184 -0.81908244 -0.2988926 -0.5736562 -2.738197
-2.6559217 -1.4604161 -0.6419578 0.008633878 0.0027084872 -0.035427857 -0.62526524 0.6103876
-1.2667836 -3.9874148 -3.2682006 -1.3742735 -1.0597682 -0.36275706 0.32746094 -0.5073494
-1.2718203 -0.21553399 0.9409633 0.8559178 0.493533 -0.68237776 -0.22226565 0.29208955
-0.917945 -0.8783009 0.09066935 -1.690593 -2.0360818 -2.617602 -1.6859204 -1.689686
0.016054764 -0.0011673644 -0.020413801 -0.15492469 1.1813555 -2.5008035 -1.343977 -1.1455898
-1.6998283 -2.045926 0.4232727 -1.0882912 -0.37818155 -0.09559007 0.8107415 0.3956729
0.23881061 0.49568412 0.2126063 0.051698845 -0.70868826 1.6228046 1.3625927 -1.0186268
-4.7481174 -5.6393614 -2.3214986 -1.9931965 -0.014235331 -0.025765037 0.021537505 -1.1250436
-0.06151931 -0.22737417 0.54932153 0.12143548 -1.5034871 -0.28105626 0.1916838 0.09022435
-0.32065064 0.61801445 -0.08792687 -0.066514626 0.7419963 1.4895953 0.752029 0.8460609
0.52146816 -0.18108785 -0.051939163 -2.008977 -5.0474076 -4.9639 -3.3364933 0.09315366
0.022288553 -0.00896018 1.330513 -0.45483688 -1.0029662 -0.4736896 0.9733005 -0.093255796
-0.61680156 0.072818704 0.49993187 -1.2252297 0.8521604 0.2666366 0.6366109 1.063922
1.9032954 1.0651108 1.0929598 0.6994092 1.1256535 0.81014496 0.027539711 0.37898782
-2.8313856 -4.9810286 -2.2838523 -0.02773796 0.000992585 -0.0926199 1.0199239 -1.5837703
00000000: 6657 c83c 4106 043d 7fac 0ebd 129d 5bbc
00000010: 1c5c 6bbc b301 003d 752d bcbc 7058 c9bb
00000020: da50 9fbc a447 99bb 9217 c23c 1e10 85bc
00000030: 202b d73c c8fc a4bb 6849 afbc eadc c53c
00000040: 4a24 71bc da49 bfbc 78fd 5ebc 92fa bd3c
00000050: 32f1 06bd b0cd f13b 6358 033d 3c59 f5bc
00000060: 38f5 49bc 5023 d23c f07c c7bb d036 663b
00000070: 5c2d d73c a06a c2ba 3065 373c 0461 11bd
00000080: 40e9 b13b 4a76 d83c c04e 2c3c 2aec 0dbc
00000090: b662 ac3c f159 0e3d 8e93 db3c 0a31 13bc
000000a0: 40dd a7bc 6e2b babd c225 abbd 5f5b 06be
000000b0: 0080 d037 4632 cf3c be3e 813c 3b3b 08bd
000000c0: 7ee6 f4bc 98d6 7c3c f880 b23b 50e6 043c
000000d0: 6042 82ba 043d 653c 6c92 8ebc 5cc8 36bc
000000e0: e0e6 92ba 4af2 41bc 18df 7dbc ace2 58bf
000000f0: 5a38 1a3f 18bc 243c 1268 48bf 2568 4abe
00000100: 222c 90bf dc25 debf 72a4 cbbf 2342 23c0
00000110: e485 30c0 f438 1bc0 1d80 3ac0 3869 92c0
00000120: b496 85c0 3f92 7dc0 b974 51c0 d7f4 e7bf
00000130: 665a ffbf 139f 96bf 56f6 1cbf 009a 033b
00000140: db9b 073d 85c2 fbbc 2c12 cc3c 657f 113d
00000150: 0080 66b8 d067 723c 0a5e e0bc d8bb 88bf
00000160: 26dd 7cbf dcb5 02be 2e3c 91bf a801 4cbf
00000170: ef2a 62c0 75a1 b4c0 1315 8ec0 a4f7 78c0
00000180: eb8f 05c0 1ca0 85bf 7638 e9bf 78c9 3ebf
00000190: 0997 d2be 57e2 d9bf 216c fabf 5f2f 3cbf
000001a0: b034 eebf 5b0f 49c0 a995 44bf 4057 193f
000001b0: 7482 c8be fba0 913f c6ff 1dbf d0a5 80bc
000001c0: 2c2b d1bc 88c2 cd3c 887f 993b 61c5 683e
000001d0: 2711 bebc b6ad dfbf 02a2 b5bf 4069 c5be
000001e0: 87c1 6bbd 9216 dfbf d20e cebf 94a7 9c3e
000001f0: acb8 87bf b185 393f ffdc 43be 07ea 13bf
00000200: e4cd 38bf e888 673e e92b 6e3f 2267 b8be
00000210: 63af 51bf 7308 99be 22db 12bf 9f3e 2fc0
00000220: 9ffa 29c0 eaee babf 5957 24bf 1c75 0d3c
00000230: e080 313b cd1c 11bd 6211 20bf 5d42 1c3f
00000240: f725 a2bf ce31 7fc0 332a 51c0 32e8 afbf
00000250: 7ca6 87bf 4bbb b9be f6a8 a73e a6e1 01bf
00000260: 02cb a2bf f1b4 5cbe f9e2 703f 6e1d 5b3f
00000270: 5bb0 fc3e 4fb0 2ebf 9b99 63be c38c 953e
00000280: 72fe 6abf 54d8 60bf dab0 b93d 5a65 d8bf
00000290: 2a4f 02c0 cb86 27c0 3dcc d7bf a147 d8bf
000002a0: 4885 833c 4002 99ba d83a a7bc 94a4 1ebe
000002b0: a836 973f 2a0d 20c0 7007 acbf b0a2 92bf
000002c0: f993 d9bf 74f0 02c0 33b7 d83e 204d 8bbf
000002d0: 03a1 c1be bac4 c3bd c18c 4f3f a395 ca3e
000002e0: c58a 743e 4fca fd3e 77b5 593e 2bc2 533d
000002f0: 986c 35bf 10b8 cf3f 7069 ae3f 5d62 82bf
00000300: 94f0 97c0 a675 b4c0 6f93 14c0 1021 ffbf
00000310: 4e3b 69bc 3311 d3bc 6c6f b03c 6e01 90bf
00000320: acfb 7bbd c6d4 68be 56a0 0c3f 2ab3 f83d
00000330: 4472 c0bf 9be6 8fbe c248 443e 8bc7 b83d
00000340: 522c a4be 3236 1e3f 0113 b4bd d238 88bd
00000350: 78f3 3d3f 0fab be3f f984 403f 7297 583f
00000360: f07e 053f 186f 39be 29be 54bd 1493 00c0
00000370: 5d84 a1c0 45d8 9ec0 1b89 55c0 59c7 be3d
00000380: 7c96 b63c b8cd 12bc 404e aa3f 61e0 e8be
00000390: 3261 80bf 7187 f2be 392a 793f e5fc bebd
000003a0: b5e6 1dbf f921 953d 12f7 ff3e 54d4 9cbf
000003b0: 2f27 5a3f 9884 883e eff8 223f 992e 883f
000003c0: 2f9f f33f 8d55 883f 1be6 8b3f 7b0c 333f
000003d0: 6a15 903f a965 4f3f f69a e13c b10a c23e
000003e0: 6c35 35c0 9664 9fc0 a32a 12c0 b83a e3bc
000003f0: a019 823a 81af bdbd de8c 823f fcb8 cabf

fc.bias f4 [10]
-4.6199327 -0.8102717 -0.15265809 -3.8846865 -1.786566 -0.093041964 -0.08831124 -0.12697847
-4.9299064 -3.3695457
00000000: 7dd6 93c0 f76d 4fbf 6752 1cbe b49e 78c0
00000010: 32ae e4bf c98c bebd 86dc b4bd a506 02be
00000020: cbc1 9dc0 a3a6 57c0

exp_avg f4 [10, 784]
0.0 0.0 0.0 0.0 0.0 0.0 0.0 0.0
0.0 0.0 0.0 0.0 0.0 0.0 0.0 0.0
0.0 0.0 0.0 0.0 0.0 0.0 0.0 0.0
0.0 0.0 0.0 0.0 0.0 0.0 0.0 0.0
0.0 0.0 0.0 0.0 0.0 0.0 0.0 0.0
0.0 6e-45 6e-45 6e-45 0.0 0.0 0.0 0.0
0.0 0.0 0.0 0.0 0.0 0.0 0.0 0.0
0.0 0.0 0.0 6e-45 -6e-45 0.0 6e-45 -6e-45
6e-45 6e-45 6e-45 6e-45 -6e-45 -7.3258514e-07 -4.828404e-07 5.219488e-36
-8.5991055e-19 -8.5991055e-19 -3.6915874e-24 -6.605993e-24 6e-45 6e-45 6e-45 0.0
0.0 0.0 0.0 0.0 0.0 0.0 0.0 6e-45
-6e-45 -1.6466981e-35 -9.585249e-36 -6e-45 1.2544817e-09 2.8614684e-09 -1.1793731e-10 5.671003e-06
2.1849242e-05 6.902999e-05 0.0001222539 -0.00013360957 -0.00013875707 -8.555981e-05 -0.00012833631 -0.00012834692
-7.297954e-05 -6.544543e-06 -8.3791385e-10 -2.6530259e-10 -2.50107e-40 -7.16e-41 6e-45 0.0
0.0 0.0 0.0 -6e-45 -6e-45 -6e-45 -4.8155143e-13 6.830057e-10
-3.15444e-07 -2.0695197e-06 -9.47501e-06 -2.6587782e-05 0.0001419986 8.0766884e-05 1.3082216e-05 -0.0001521277
-0.00028349605 -0.00015559811 -0.0001385834 -0.00013285529 -0.00012790029 -1.5117112e-05 -1.29393305e-08 -4.829691e-10
-7.19157e-24 -6.865e-42 6e-45 0.0 0.0 0.0 1.2026034e-12 -6e-45
-9.147262e-20 1.8734625e-13 -2.1544277e-11 6.5295364e-10 -5.265432e-06 -3.704367e-05 -3.338191e-05 -2.498154e-05
7.573388e-05 6.6928e-06 -9.83272e-06 -0.00016460703 -0.00032857753 -0.00028743062 -0.00026497935 -6.8184795e-06
0.00013252585 0.00024849531 0.00026211407 5.6294255e-05 3.3085912e-13 -2.5e-44 6e-45 6e-45
0.0 0.0 0.0 6e-45 -7.0837074e-14 -7.937089e-13 -4.7920956e-09 -7.038411e-08
-1.1024281e-06 -1.1286902e-05 -2.6395084e-05 1.9080962e-06 1.5370615e-06 -1.7409591e-06 -5.5988934e-05 -0.00020512083
6.218483e-05 0.0002747632 0.0003205039 0.00018606446 -7.649525e-05 -7.6623764e-05 5.177835e-05 0.00015911563
4.5919387e-06 4.269697e-06 -1.4998375e-38 -6e-45 0.0 0.0 0.0 -6e-45
-2.4084573e-13 -1.9011319e-10 -5.0408283e-07 -7.986417e-06 -1.1354051e-05 -6.655599e-05 -5.093463e-05 5.08119e-06
1.1673822e-05 0.00045651558 0.0005833543 0.0010679548 0.0012959243 0.001355259 0.0013206715 0.0008758421
-0.00017154003 -0.00031435068 -0.00018542446 9.604969e-05 0.0001401572 7.250432e-07 -6e-45 -6e-45
0.0 0.0 -2.3232986e-05 -2.7998725e-05 -2.6918046e-13 -3.0314407e-08 -2.2173124e-06 -4.0397503e-05
-3.0022926e-05 -0.00016783288 -0.00021607605 0.0001713233 0.0007375608 0.0012871715 0.0015107703 0.0014270707
0.0011330359 0.0008941938 0.00075502606 0.0007548096 0.00079831603 -0.00028120165 -0.00033344896 -0.00020898937
0.00096373446 0.0010249363 6e-45 0.0 0.0 6e-45 -9.531482e-06 -1.1914352e-05
00000000: 0000 0000 0000 0000 0000 0000 0000 0000
00000010: 0000 0000 0000 0000 0000 0000 0000 0000
00000020: 0000 0000 0000 0000 0000 0000 0000 0000
00000030: 0000 0000 0000 0000 0000 0000 0000 0000
00000040: 0000 0000 0000 0000 0000 0000 0000 0000
00000050: 0000 0000 0000 0000 0000 0000 0000 0000
00000060: 0000 0000 0000 0000 0000 0000 0000 0000
00000070: 0000 0000 0000 0000 0000 0000 0000 0000
00000080: 0000 0000 0000 0000 0000 0000 0000 0000
00000090: 0000 0000 0000 0000 0000 0000 0000 0000
000000a0: 0000 0000 0400 0000 0400 0000 0400 0000
000000b0: 0000 0000 0000 0000 0000 0000 0000 0000
000000c0: 0000 0000 0000 0000 0000 0000 0000 0000
000000d0: 0000 0000 0000 0000 0000 0000 0000 0000
000000e0: 0000 0000 0000 0000 0000 0000 0400 0000
000000f0: 0400 0080 0000 0000 0400 0000 0400 0080
00000100: 0400 0000 0400 0000 0400 0000 0400 0000
00000110: 0400 0080 dea6 44b5 8a9c 01b5 3103 de04
00000120: 01cd 7da1 01cd 7da1 b6cf 8e98 968e ff98
00000130: 0400 0000 0400 0000 0400 0000 0000 0000
00000140: 0000 0000 0000 0000 0000 0000 0000 0000
00000150: 0000 0000 0000 0000 0000 0000 0400 0000
00000160: 0400 0080 631b af85 0fdb 4b85 0400 0080
00000170: 276a ac30 7ca3 4431 67ac 01af 8b49 be36
00000180: e448 b737 32c4 9038 4831 0039 8c19 0cb9
00000190: 517f 11b9 936e b3b8 0492 06b9 dd94 06b9
000001a0: 980c 99b8 3299 dbb6 f252 66b0 05da 91af
000001b0: 32b9 0280 97c7 0080 0400 0000 0000 0000
000001c0: 0000 0000 0000 0000 0000 0000 0400 0080
000001d0: 0400 0080 0400 0080 708b 07ab 41be 3b30
000001e0: 4b5a a9b4 14e2 0ab6 dcf6 1eb7 d408 dfb7
000001f0: 75e5 1439 6461 a938 b17b 5b37 7884 1fb9
00000200: 32a2 94b9 0d28 23b9 b350 11b9 124f 0bb9
00000210: f91c 06b9 809f 7db7 c74b 5eb2 eec1 04b0
00000220: ee1a 0b99 2313 0080 0400 0000 0000 0000
00000230: 0000 0000 0000 0000 5b40 a92b 0400 0080
00000240: cefb d79f e1ee 522a 6681 bdad 877b 3330
00000250: b7ad b0b6 565f 1bb8 8e03 0cb8 738f d1b7
00000260: 51d3 9e38 b792 e036 36f7 24b7 5d9a 2cb9
00000270: ee44 acb9 49b2 96b9 edec 8ab9 4bca e4b6
00000280: a3f6 0a39 7a48 8239 5b6c 8939 7f1d 6c38
00000290: d341 ba2a 1200 0080 0400 0000 0400 0000
000002a0: 0000 0000 0000 0000 0000 0000 0400 0000
000002b0: cb82 9fa9 c168 5fab b8a7 a4b1 1326 97b3
000002c0: 24f7 93b5 e05c 3db7 036b ddb7 d80c 0036
000002d0: 084d ce35 e6aa e9b5 a9d5 6ab8 b415 57b9
000002e0: 3a69 8238 180e 9039 4e09 a839 4c1a 4339
000002f0: 136c a0b8 12b1 a0b8 942c 5938 47d8 2639
00000300: 7414 9a36 6b44 8f36 5e51 a380 0400 0080
00000310: 0000 0000 0000 0000 0000 0000 0400 0080
00000320: 8795 87aa 1b08 51af 4f50 07b5 66fd 05b7
00000330: 477d 3eb7 fa93 8bb8 a4a2 55b8 177f aa36
00000340: afda 4337 7c58 ef39 3fec 183a 9efa 8b3a
00000350: 01dc a93a f2a2 b13a 621a ad3a c598 653a
00000360: 6ddf 33b9 6fcf a4b9 806e 42b9 496e c938
00000370: 29f7 1239 97a0 4235 0400 0080 0400 0080
00000380: 0000 0000 0000 0000 75e4 c2b7 cede eab7
00000390: fe88 97aa 0b33 02b3 23cd 14b6 7d70 29b8
000003a0: bed9 fbb7 4cfc 2fb9 7992 62b9 40a5 3339
000003b0: de58 413a 4fb6 a83a 0a05 c63a 8c0c bb3a
000003c0: 6082 943a 5568 6a3a f1ec 453a 6ade 453a
000003d0: 1546 513a 3f6e 93b9 c3d2 aeb9 2824 5bb9
000003e0: 20a3 7c3a 2857 863a 0400 0000 0000 0000
000003f0: 0000 0000 0400 0000 67e9 1fb7 c1e3 47b7

exp_avg_sq f4 [10, 784]
0.0 0.0 0.0 0.0 0.0 0.0 0.0 0.0
0.0 0.0 0.0 0.0 0.0 0.0 0.0 0.0
0.0 0.0 0.0 0.0 0.0 0.0 0.0 0.0
0.0 0.0 0.0 0.0 0.0 0.0 0.0 0.0
0.0 0.0 0.0 0.0 0.0 0.0 0.0 0.0
0.0 2.2594916e-13 1.3690599e-12 3.7353306e-14 0.0 0.0 0.0 0.0
0.0 0.0 0.0 0.0 0.0 0.0 0.0 0.0
0.0 0.0 0.0 8.4426056e-11 2.2621592e-12 0.0 2.6246078e-10 1.764442e-09
2.0339352e-10 1.7076628e-08 1.5921673e-08 1.9981618e-08 2.7138155e-08 2.8934983e-07 5.4277183e-07 2.7058784e-08
7.434809e-08 9.14575e-08 1.232206e-08 1.2276576e-08 4.391944e-09 5.462905e-10 4.225403e-11 0.0
0.0 0.0 0.0 0.0 0.0 0.0 0.0 4.107304e-09
3.0145797e-09 1.401995e-10 4.0017897e-10 6.2806365e-09 7.010535e-08 3.650642e-07 9.3121014e-07 1.5760112e-06
1.5404357e-06 2.4255125e-06 2.7430654e-06 1.8717791e-06 3.4103198e-06 2.723296e-06 1.6901516e-06 2.2854138e-06
2.0709224e-06 5.33998e-07 3.958085e-08 1.5924137e-08 2.7821864e-10 3.8968997e-09 2.351671e-10 0.0
0.0 0.0 0.0 5.846644e-12 3.6234247e-12 4.2967715e-10 5.7177005e-09 9.679875e-08
8.523244e-07 2.7989765e-06 3.8721737e-06 4.600395e-06 6.502453e-06 9.66153e-06 1.140121e-05 1.3152195e-05
1.4682194e-05 1.3529389e-05 1.0097239e-05 9.710288e-06 6.46178e-06 3.1940879e-06 1.4169829e-06 6.641398e-07
8.810213e-09 3.4371404e-09 2.395311e-11 0.0 0.0 0.0 8.2995815e-09 5.0216654e-11
2.5373112e-11 2.0130102e-08 3.4163503e-07 6.7815193e-07 2.0922057e-06 4.691383e-06 7.684933e-06 1.1484291e-05
1.6292432e-05 1.9308833e-05 2.2906188e-05 2.5259431e-05 2.7382715e-05 2.9032022e-05 2.6126412e-05 2.0645452e-05
1.4150069e-05 8.070297e-06 4.008e-06 1.5704876e-06 1.8853338e-08 5.7692245e-10 1.4736766e-10 8.57179e-10
0.0 0.0 0.0 2.2472298e-13 5.1499334e-09 3.962228e-07 1.1142133e-06 2.7520896e-06
4.473941e-06 9.847568e-06 1.3375576e-05 1.9408857e-05 2.3447798e-05 2.7053125e-05 3.19631e-05 3.537823e-05
3.8872164e-05 3.888557e-05 3.509278e-05 2.8873705e-05 2.0207051e-05 1.2936499e-05 7.182514e-06 2.1528629e-06
4.879794e-07 3.413086e-07 7.217605e-09 4.6201034e-09 0.0 0.0 0.0 5.7067535e-11
2.3456272e-08 5.0886314e-07 2.349118e-06 4.6360265e-06 8.214744e-06 1.33638305e-05 1.890019e-05 2.440585e-05
2.6784073e-05 2.9359555e-05 3.325808e-05 3.691409e-05 4.2099495e-05 4.3898828e-05 4.034847e-05 3.293845e-05
2.6817579e-05 2.0227864e-05 1.2564789e-05 5.500302e-06 7.024997e-07 8.129481e-08 3.666974e-10 1.18097745e-11
0.0 0.0 1.9197416e-10 8.501767e-10 7.0365466e-08 7.868308e-07 4.4005305e-06 7.2713983e-06
1.1229429e-05 1.8902036e-05 2.3416022e-05 2.876202e-05 2.9428542e-05 3.3295426e-05 3.5118726e-05 3.753419e-05
3.8352053e-05 3.870117e-05 3.6188037e-05 3.532087e-05 3.072842e-05 2.4122546e-05 1.4914998e-05 6.5410068e-06
1.0204587e-06 3.3558774e-07 1.0922269e-09 0.0 0.0 7.3387565e-14 3.2311234e-11 6.847688e-09
00000000: 0000 0000 0000 0000 0000 0000 0000 0000
00000010: 0000 0000 0000 0000 0000 0000 0000 0000
00000020: 0000 0000 0000 0000 0000 0000 0000 0000
00000030: 0000 0000 0000 0000 0000 0000 0000 0000
00000040: 0000 0000 0000 0000 0000 0000 0000 0000
00000050: 0000 0000 0000 0000 0000 0000 0000 0000
00000060: 0000 0000 0000 0000 0000 0000 0000 0000
00000070: 0000 0000 0000 0000 0000 0000 0000 0000
00000080: 0000 0000 0000 0000 0000 0000 0000 0000
00000090: 0000 0000 0000 0000 0000 0000 0000 0000
000000a0: 0000 0000 6965 7e2a 95ad c02b 6e39 2829
000000b0: 0000 0000 0000 0000 0000 0000 0000 0000
000000c0: 0000 0000 0000 0000 0000 0000 0000 0000
000000d0: 0000 0000 0000 0000 0000 0000 0000 0000
000000e0: 0000 0000 0000 0000 0000 0000 a5a7 b92e
000000f0: 702f 1f2c 0000 0000 124a 902f c980 f230
00000100: 30a2 5f2f e7af 9232 21c4 8832 0ba4 ab32
00000110: 6f1d e932 f057 9b34 ffb2 1135 e56e e832
00000120: 4ba9 9f33 4b67 c433 feb0 5332 f4e8 5232
00000130: f3e7 9631 c729 1630 cfd5 392e 0000 0000
00000140: 0000 0000 0000 0000 0000 0000 0000 0000
00000150: 0000 0000 0000 0000 0000 0000 3a20 8d31
00000160: 0c29 4f31 a726 1a2f 2f00 dc2f 10cd d731
00000170: d38c 9633 0bfe c334 46f8 7935 5587 d335
00000180: f8c0 ce35 fdc5 2236 8115 3836 d739 fb35
00000190: d9dc 6436 dec1 3636 2bd9 e235 1c5f 1936
000001a0: 2dfa 0a36 1058 0f35 9bff 2933 8cc9 8832
000001b0: cbf3 982f 7ee5 8531 d448 812f 0000 0000
000001c0: 0000 0000 0000 0000 0000 0000 e3b5 cd2c
000001d0: d1f9 7e2c af37 ec2f 6d75 c431 addf cf33
000001e0: 49cb 6435 0dd6 3b36 b8ed 8136 185d 9a36
000001f0: a52f da36 f517 2237 d347 3f37 3fa8 5c37
00000200: 8b53 7637 49fc 6237 5067 2937 5fe9 2237
00000210: 44d2 d836 035a 5636 292f be35 5747 3235
00000220: ba5b 1732 d032 6c31 9cb1 d22d 0000 0000
00000230: 0000 0000 0000 0000 f295 0e32 edda 5c2e
00000240: 2b2f df2d 90ea ac32 f669 b734 3f0a 3635
00000250: d267 0c36 ac6a 9d36 89ee 0037 a7ac 4037
00000260: bbab 8837 67f9 a137 aa26 c037 37e4 d337
00000270: efb3 e537 cb89 f337 0b2a db37 c52f ad37
00000280: 1566 6d37 a965 0737 757c 8636 8bc9 d235
00000290: eef2 a132 4f95 1e30 4f08 222f 9c9e 6b30
000002a0: 0000 0000 0000 0000 0000 0000 fd03 7d2a
000002b0: 4bf3 b031 72b8 d434 148c 9535 8ab0 3836
000002c0: dc1e 9636 fc36 2537 a967 6037 34d0 a237
000002d0: c3b1 c437 25f0 e237 1e10 0638 1663 1438
000002e0: ab0a 2338 1019 2338 9630 1338 cf35 f237
000002f0: 5082 a937 d709 5937 5301 f136 e779 1036
00000300: b0fd 0235 193d b734 bafe f731 dcbe 9e31
00000310: 0000 0000 0000 0000 0000 0000 55fc 7a2e
00000320: e37c c932 cf98 0835 8aa5 1d36 2a8f 9b36
00000330: 0fd2 0937 3735 6037 d98b 9e37 2abb cc37
00000340: 5cae e037 2a49 f637 977e 0b38 34d4 1a38
00000350: fd93 3038 0220 3838 d73b 2938 6427 0a38
00000360: 50f6 e037 02af a937 5ccd 5237 3c8f b836
00000370: 6993 3c35 4b94 ae33 1298 c92f 7fc2 4f2d
00000380: 0000 0000 0000 0000 ec13 532f deb1 6930
00000390: d31b 9733 9a36 5335 45a8 9336 d6fc f336
000003a0: 0866 3c37 d08f 9e37 866d c437 f845 f137
000003b0: 50dd f637 b1a6 0b38 724c 1338 086e 1d38
000003c0: 34dc 2038 1153 2238 9cc8 1738 7f25 1438
000003d0: 64e2 0038 c65a ca37 6e3b 7a37 d27a db36
000003e0: b2f6 8835 d42a b434 511d 9630 0000 0000
000003f0: 0000 0000 0d41 a529 371b 0e2e e748 eb31

exp_avg f4 [10]
0.0010807872 -0.0027135112 6e-45 -0.0022304163 0.0029779517 6e-45 6e-45 6e-45
6e-45 -0.0083253225
00000000: 33a9 8d3a 2ad5 31bb 0400 0000 2d2c 12bb
00000010: bd29 433b 0400 0000 0400 0000 0400 0000
00000020: 0400 0000 ef66 08bc

exp_avg_sq f4 [10]
8.5578904e-05 6.7427754e-05 8.001587e-13 0.00015646596 0.00024037153 8.613605e-11 6.2157425e-11 6.6767876e-11
2.7570331e-06 0.0004302101
00000000: d378 b338 0068 8d38 8339 612b 0311 2439
00000010: 3e0c 7c39 496a bd2e 85af 882e f9d2 922e
00000020: 7805 3936 d28d e139
