ex/lightning_logs/version_6/checkpoints/epoch=4-step=9375.ckpt (torch, 99271 bytes, 6 tensors)

fc.weight f4 [10, 784]
00000000: b804 09bd ee61 33bc 61aa 053d c0f9 4e3a
00000010: d426 023c 04dc 183c 262d 953c a7d9 003d
00000020: 5e41 93bc c81a cabb 12df 6ebc 832e f7bc
00000030: 1ca4 c2bb 97c2 0b3d ce70 9cbc 2c5f 81bc
00000040: 08a6 d4bb 260b c03c 52c9 6fbc 361f a53c
00000050: 9770 003d b0e8 c63b 2afa cb3c 94f0 adbb
00000060: 7858 d4bc f00f 953b 7082 7b3c 4003 c4bb
00000070: a0d0 d83b 66ec c93c 8edb 4fbc 6003 fb3b
00000080: 3adb fdbc 2ee5 e23c 5c94 79bc f8c5 d6bb
00000090: eab5 eabc e0a9 0e3b 5207 86be 704d e0be
000000a0: 1cfd e5be dee9 e4bd fb47 0abe d627 dabd
000000b0: 38a3 03be e805 67bd 4c4c aa3c 90d2 5f3b
000000c0: 50f4 693b 6b8b 0a3d 723d 01bd e54e dcbc
000000d0: fcdd 413c 1c21 ecbc 5c13 d6bc a0f8 b93c
000000e0: 4e6a 923c 424c d63c 38dd aebb 55a6 db3f
000000f0: f8b8 1640 a004 23bc 2d89 b8bf 67e1 26be
00000100: bbd1 86bf d785 9bbf f157 95bf f57b 5ac0
00000110: 51ed 59c0 74c8 51c0 a945 62c0 5a1a a5c0
00000120: 0d43 66c0 5621 5bc0 caf5 66c0 4930 04c0
00000130: 4b1a 08c0 ae31 85bf 4371 9abe 747e 3c3c
00000140: 2ce1 893c 9205 df3c 8234 02bd 3883 c23b
00000150: 1296 0abc 1008 1d3c b8ed a03b 64b1 cc3f
00000160: 972f 993f c656 3ebd b734 1fc0 9f20 a0bf
00000170: 6edb 62c0 e597 6cc0 66a9 9fbf 1490 25c0
00000180: d0bc 25c0 1b66 9ebf 9b36 cbbc 0965 3b3f
00000190: 37de d03f c724 adbf 5433 10c0 f229 7cbe
000001a0: 156b 283f f929 26c0 2ba0 03c0 a00c ee3d
000001b0: 55e1 713f d8cc ef3f 236c 93bf 577d a1bc
000001c0: a0f1 17bb 5286 d93c 5e69 f2bc f13a 3e3c
000001d0: 94fe 0cbc 141f 0cc0 2e42 05c0 d890 b8bf
000001e0: 0e01 59bf fbf0 f53e 9488 ca3c e614 e73e
000001f0: 2192 ebbf a169 ccbc cf07 85be 1c87 05bf
00000200: d021 94bf 7964 95be 4a53 063d d599 63bf
00000210: f5f2 95bf 4498 85bf 5716 d3bf b185 1bc0
00000220: dd5f 13c0 877d 99bf 03af 92bf 662b e03c
00000230: ea6d 58bc 2b97 023d 6d2c 1abf f3df b1be
00000240: 70df 3fbf 597f 67c0 5af2 2ec0 3bfb 1dc0
00000250: 7b7b 10be 65a1 fb3c 356e d33e aa3f 963e
00000260: 1a53 8dbe b667 e23d ede3 9a3f dc21 003f
00000270: 3028 0f3f b698 8bbe 13cc aa3e 7687 2bbf
00000280: 13a9 8dbf 6534 3bbf 24d3 dcbd fb37 11c0
00000290: 6d36 4dc0 753e 1ec0 1739 bfbf 1e7e c8bf
000002a0: d29c 56bc 7357 003d 3bb1 97bf bede a1bf
000002b0: 4d83 d33d 9002 c3bf 9e59 05c0 97e5 a5bf
000002c0: 8b24 aabf 4e97 04c0 34e7 803e b2d1 1fbe
000002d0: 4f0b a6be af81 f13d 45bb 203f 1ba4 7bbe
000002e0: bae6 01bf f9e0 f13d 2bd0 02bf 2622 2fbe
000002f0: f407 c0bf de81 5a3e 494e 5f3f 65bf 08c0
00000300: 3bd2 96c0 53a8 88c0 f4d8 1dc0 0c5a d6bf
00000310: 7a4e a4bc fea4 823c 14e0 96bf fdd2 d5bf
00000320: 8235 aebf 1473 1bc0 8c4f 0cbf 4389 013d
00000330: 51cb ecbf 3c9b 14bf ac0b b23e 7d3e 873f
00000340: 9d1c 593d 12cc de3e 8b6d a9bd f597 50bc
00000350: f907 213d 60d3 473f 9fb2 273f d629 0a3f
00000360: 9cfb 2cbf ccce 53bf caac 89bf d67e 12c0
00000370: f845 81c0 22fa 91c0 2a36 70c0 fd6c 293f
00000380: 1036 473b f637 ab3c 87b3 93be 08c3 02c0
00000390: 028c 1fc0 2a3f 09c0 565e 903f bb3d 653f
000003a0: 6b5c 5ebe f11f 77be f340 813f 80e6 91be
000003b0: 4ac1 a63f fc50 c53e 833b 933f 77ef a53f
000003c0: f949 e93f e440 ad3f d760 bf3f 6d52 2b3f
000003d0: a089 483f 6657 c13e 0546 303e d3bf 453f
000003e0: 16cd 47c0 773b bcc0 8abd 3ac0 a66e e43c
000003f0: faca debc 8549 d9bc 9194 9e3f b345 42c0
-0.033451766 -0.010948641 0.03263319 0.0007895492 0.007943828 0.0093298 0.018210005 0.03145757
-0.017975505 -0.0061677434 -0.014579551 -0.030173546 -0.0059399735 0.034121122 -0.019096758 -0.015792452
-0.006489519 0.023442816 -0.014635401 0.020156484 0.031357374 0.006070219 0.024899561 -0.00530822
-0.025921091 0.004549019 0.015350923 -0.0059818327 0.006616667 0.024648856 -0.012686623 0.0076603144
-0.030988324 0.027697172 -0.015233126 -0.0065543614 -0.028651197 0.0021768734 -0.2617746 -0.4380908
-0.4491967 -0.11177419 -0.13504021 -0.10652129 -0.12855232 -0.056402117 0.020788334 0.0034152605
0.00356986 0.033824366 -0.03155274 -0.026893089 0.01183271 -0.028824382 -0.026132278 0.022701561
0.017872956 0.02615941 -0.00533643 1.7160136 2.3550396 -0.009949833 -1.4416863 -0.16296922
-1.0532755 -1.215022 -1.1667463 -3.4138157 -3.4051096 -3.2778597 -3.5355017 -5.1594667
-3.5978425 -3.4239097 -3.6087518 -2.065447 -2.1266048 -1.0405786 -0.30164537 0.011504758
0.016831003 0.027224336 -0.031788357 0.0059360527 -0.008458631 0.009584442 0.004911151 1.5991635
1.1967648 -0.046469472 -2.4875925 -1.2509955 -3.544643 -3.696771 -1.2473571 -2.5869188
-2.5896492 -1.237491 -0.024806311 0.7320104 1.6317815 -1.3526849 -2.2531328 -0.24625376
0.65788394 -2.5963118 -2.0566509 0.11623502 0.94484454 1.8734388 -1.1517376 -0.019713087
-0.0023184791 0.026553307 -0.029591259 0.011610732 -0.008605618 -2.1893969 -2.0821643 -1.4419203
-0.84767234 0.48035416 0.024723329 0.45133132 -1.840397 -0.024952712 -0.2598252 -0.52159286
-1.1572819 -0.29178217 0.032794274 -0.88906604 -1.171477 -1.0437093 -1.6491193 -2.4300349
-2.302726 -1.1991433 -1.1459659 0.027364444 -0.013209799 0.031882446 -0.6022404 -0.34741172
-0.74950314 -3.6171477 -2.733542 -2.468459 -0.14109604 0.030716607 0.4129502 0.29345447
-0.27602464 0.110549375 1.2100807 0.50051665 0.55920696 -0.27264947 0.3335882 -0.6700357
-1.1067222 -0.7312682 -0.107824594 -2.2690418 -3.206447 -2.472562 -1.4939297 -1.5663488
-0.013098912 0.031333398 -1.1850961 -1.26461 0.10327778 -1.5235157 -2.0835948 -1.296069
-1.3292402 -2.071735 0.25176394 -0.15607336 -0.32430503 0.11792313 0.6278575 -0.2457432
-0.50742686 0.11810488 -0.5109889 -0.1710287 -1.5002427 0.21338603 0.8722883 -2.1366818
-4.713163 -4.2705474 -2.4663668 -1.674623 -0.020056952 0.015947815 -1.1787133 -1.6705014
-1.3610079 -2.4288988 -0.5480888 0.031625044 -1.8499547 -0.5804937 0.3477453 1.0565945
0.053005803 0.43515068 -0.08272847 -0.012731542 0.039314244 0.7805691 0.6550693 0.53970087
-0.67571425 -0.8273742 -1.0755856 -2.2889915 -4.039791 -4.561784 -3.753306 0.6618193
0.0030397214 0.020900708 -0.28847906 -2.0431538 -2.4929204 -2.1444802 1.1278789 0.8954732
-0.21714942 -0.24133278 1.0097946 -0.2849617 1.3027737 0.3853835 1.1502537 1.2963704
1.82257 1.3535428 1.4951428 0.66922647 0.78335 0.37761992 0.1721421 0.77245826
-3.1218925 -5.882259 -2.9178185 0.027884793 -0.027196396 -0.026524315 1.2389089 -3.035504

fc.bias f4 [10]
00000000: 58da 85c0 b011 26bf e255 863e 73b2 19be
00000010: 5f45 4fbf 3c18 1cbe 4b99 12c0 1b74 fd3f
00000020: d832 97c0 c9ba 0ebe
-4.1829033 -0.6487074 0.26237398 -0.15009479 -0.80965227 -0.1524362 -2.2906063 1.9801058
-4.7249565 -0.1393844

exp_avg f4 [10, 784]
00000000: 0000 0000 0000 0000 0000 0000 0000 0000
00000010: 0000 0000 0000 0000 0000 0000 0000 0000
00000020: 0000 0000 0000 0000 0000 0000 0000 0000
00000030: 0000 0000 0000 0000 0000 0000 0000 0000
00000040: 0000 0000 0000 0000 0000 0000 0000 0000
00000050: 0000 0000 0000 0000 0000 0000 0000 0000
00000060: 0000 0000 0000 0000 0000 0000 0000 0000
00000070: 0000 0000 0000 0000 0000 0000 0000 0000
00000080: 0000 0000 0000 0000 0000 0000 0000 0000
00000090: 0000 0000 0000 0000 0400 0000 0400 0000
000000a0: 0400 0000 0400 0000 0400 0000 0400 0000
000000b0: 0400 0000 0400 0000 0000 0000 0000 0000
000000c0: 0000 0000 0000 0000 0000 0000 0000 0000
000000d0: 0000 0000 0000 0000 0000 0000 0000 0000
000000e0: 0000 0000 0000 0000 0000 0000 731d 9238
000000f0: 5c29 0888 0000 0000 0400 0000 0400 0080
00000100: 0400 0080 0400 0000 0608 0100 97fa 8200
00000110: 7315 c805 6f5d 85af 9acc 2faf 3319 463a
00000120: 66ba b13a 735d 9d39 ee65 8731 2bd4 8626
00000130: cd8f 6925 dec3 6206 0400 0000 0000 0000
00000140: 0000 0000 0000 0000 0000 0000 0000 0000
00000150: 0000 0000 0000 0000 0000 0000 72e6 0d3a
00000160: 8545 f739 7a85 a38c 3f5e 3e8c 0400 0080
00000170: 81b9 45a5 38f3 75a5 ff09 c126 bb17 80b4
00000180: eaf7 3bb7 1222 f1b6 d311 85b2 05af 943a
00000190: 06c4 b93a 5733 d339 0e47 78b8 0ef8 c5b8
000001a0: 7026 61b8 2da3 a1b6 4c6c 05b1 1e71 28b0
000001b0: 9533 ae12 7ff8 0114 e5db ff12 0000 0000
000001c0: 0000 0000 0000 0000 0000 0000 0400 0080
000001d0: 0400 0080 0400 0080 f3bd 4d2e 050b 11a8
000001e0: 84a8 89b7 7b33 0fb9 1035 43b9 4739 48b9
000001f0: 111a 45b9 e3b3 3fb9 ea61 cb39 718f b43a
00000200: aa7c aa3a 2ff2 af39 5074 1a39 04e3 38b8
00000210: c943 f0b8 d233 46b7 1c07 06b4 381c 22b3
00000220: c377 1a14 249c f313 7750 2312 0000 0000
00000230: 0000 0000 0000 0000 05c4 1220 0400 0080
00000240: 0b28 d98f 1c4e 062a a662 f52a c092 ffaa
00000250: 4fb2 c6b8 27a9 43b9 34be 3fb9 60d4 4eb9
00000260: 0355 72b9 9f46 7fb9 9975 f339 0447 ab3a
00000270: ff7a 793a 8ad2 4439 81da 2a39 0781 b639
00000280: b575 b339 d029 f439 cf51 c139 948b 8d38
00000290: b262 dfa6 3309 2613 0400 0000 0400 0000
000002a0: 0000 0000 0000 0000 0400 0000 0400 0000
000002b0: d683 ed91 ef47 d22a 40de 30b3 746b b7b2
000002c0: 3489 c6b8 2220 4ab9 5697 57b9 f9ed 6bb9
000002d0: 5641 94b9 bd99 de38 4852 a73a ec6e d13a
000002e0: 745f 263a f15c 253a 37e4 4f3a 1c19 0c3a
000002f0: ca99 5239 efa5 6b38 cbd2 2b39 8fac 7d39
00000300: 6720 4d36 53bb 3e36 0400 0080 0400 0080
00000310: 0000 0000 0000 0000 0400 0000 0400 0080
00000320: 85bb e692 2256 52b3 1147 2fb4 f621 34b8
00000330: 6438 27b9 baa8 5cb9 7d12 70b9 11e4 96b9
00000340: 6b30 85b9 c1b6 8f3a 2e91 003b 542d e73a
00000350: a52f 0a3a 8164 163a 171b 1b3a ab28 8939
00000360: 9a5a 1139 c81c a8b8 0879 07b9 455b 1439
00000370: d798 6739 b78d 0135 0400 0080 0400 0080
00000380: 0000 0000 0000 0000 628a 28b1 ec1c 4bb1
00000390: 8d7c 521c c70b 38b4 a122 3cb3 dc6a 95b8
000003a0: 78f4 46b9 4dae 89b9 c92a 9eb9 815e 72b6
000003b0: d9ff 293a 647d ee3a 9df3 f13a ea9a 3a3a
000003c0: f22e f739 94fe 9539 9b18 c138 702f e4b7
000003d0: 811a b1b8 7619 96b9 53d5 d0b9 578b 05ba
000003e0: 8da1 d938 4186 37ad 0400 0000 0000 0000
000003f0: 0000 0000 0000 0000 294a 8ab0 b3dc acb0
0.0 0.0 0.0 0.0 0.0 0.0 0.0 0.0
0.0 0.0 0.0 0.0 0.0 0.0 0.0 0.0
0.0 0.0 0.0 0.0 0.0 0.0 0.0 0.0
0.0 0.0 0.0 0.0 0.0 0.0 0.0 0.0
0.0 0.0 0.0 0.0 0.0 0.0 6e-45 6e-45
6e-45 6e-45 6e-45 6e-45 6e-45 6e-45 0.0 0.0
0.0 0.0 0.0 0.0 0.0 0.0 0.0 0.0
0.0 0.0 0.0 6.967308e-05 -4.097463e-34 0.0 6e-45 -6e-45
-6e-45 6e-45 9.4714e-41 1.2028509e-38 1.8815789e-35 -2.4258948e-10 -1.5988846e-10 0.00075568556
0.0013559579 0.00030015 3.940605e-09 9.355626e-16 2.025825e-16 4.2649776e-35 6e-45 0.0
0.0 0.0 0.0 0.0 0.0 0.0 0.0 0.0005413062
0.00047163307 -2.519446e-31 -1.4665429e-31 -6e-45 -1.7149877e-16 -2.1332768e-16 1.3394775e-15 -2.3859124e-07
-1.1203791e-05 -7.186326e-06 -1.5491343e-08 0.0011343664 0.00141728 0.00040283307 -5.9193982e-05 -9.439896e-05
-5.3679978e-05 -4.81717e-06 -1.9415607e-09 -6.1278793e-10 1.099366e-27 6.561843e-27 1.6146971e-27 0.0
0.0 0.0 0.0 -6e-45 -6e-45 -6e-45 4.6780312e-11 -8.051506e-15
-1.6410144e-05 -0.0001365672 -0.00018616416 -0.00019094824 -0.00018797095 -0.00018282192 0.0003879213 0.0013775659
0.0013007123 0.00033559042 0.00014729914 -4.4080443e-05 -0.00011456718 -1.1813785e-05 -1.2482309e-07 -3.774423e-08
7.798632e-27 6.149579e-27 5.153291e-28 0.0 0.0 0.0 1.2431538e-19 -6e-45
-2.1413276e-29 1.192869e-13 4.3589194e-13 -4.5398928e-13 -9.474588e-05 -0.00018659663 -0.00018286036 -0.00019724807
-0.00023110588 -0.00024345003 0.0004643619 0.0013067429 0.0009516924 0.00018770449 0.00016293862 0.00034809878
0.0003422924 0.0004657046 0.0003687278 6.7494024e-05 -1.5500485e-15 2.0956681e-27 6e-45 6e-45
0.0 0.0 6e-45 6e-45 -3.7473257e-28 3.7353408e-13 -4.118033e-08 -2.1352868e-08
-9.466932e-05 -0.00019276192 -0.00020560375 -0.00022499998 -0.0002827744 0.00010614421 0.0012765611 0.0015978492
0.0006346621 0.00063081 0.000793043 0.0005344318 0.00020084452 5.6182904e-05 0.00016386357 0.00024192243
3.056624e-06 2.8421243e-06 -6e-45 -6e-45 0.0 0.0 6e-45 -6e-45
-1.4561268e-27 -4.8972773e-08 -1.6323999e-07 -4.2946973e-05 -0.00015947368 -0.0002104369 -0.00022895071 -0.00028780152
-0.0002540381 0.0010964499 0.0019617784 0.001763741 0.0005271382 0.0005737022 0.00059168175 0.00026160976
0.0001386203 -8.016225e-05 -0.00012919691 0.0001414838 0.00022086814 4.8262467e-07 -6e-45 -6e-45
0.0 0.0 -2.452588e-09 -2.9556828e-09 6.964415e-22 -1.714062e-07 -4.3803656e-08 -7.124778e-05
-0.00018973823 -0.0002626054 -0.00030167986 -3.6115819e-06 0.00064849627 0.0018195328 0.0018459443 0.0007118421
0.00047146488 0.0002860917 9.20754e-05 -2.7201808e-05 -8.4449544e-05 -0.000286292 -0.0003983179 -0.00050943106
0.000103774575 -1.0432156e-11 6e-45 0.0 0.0 0.0 -1.0061899e-09 -1.2577374e-09

exp_avg_sq f4 [10, 784]
00000000: 0000 0000 0000 0000 0000 0000 0000 0000
00000010: 0000 0000 0000 0000 0000 0000 0000 0000
00000020: 0000 0000 0000 0000 0000 0000 0000 0000
00000030: 0000 0000 0000 0000 0000 0000 0000 0000
00000040: 0000 0000 0000 0000 0000 0000 0000 0000
00000050: 0000 0000 0000 0000 0000 0000 0000 0000
00000060: 0000 0000 0000 0000 0000 0000 0000 0000
00000070: 0000 0000 0000 0000 0000 0000 0000 0000
00000080: 0000 0000 0000 0000 0000 0000 0000 0000
00000090: 0000 0000 0000 0000 7869 591e eb4a 9921
000000a0: fed8 be20 0e14 4b2a 6ecf 992b 3c4a 0629
000000b0: b456 261e c539 1d1d 0000 0000 0000 0000
000000c0: 0000 0000 0000 0000 0000 0000 0000 0000
000000d0: 0000 0000 0000 0000 0000 0000 0000 0000
000000e0: 0000 0000 0000 0000 0000 0000 fffc 0332
000000f0: d0f6 6230 0000 0000 3d9b 5d33 b604 ff33
00000100: ae18 3632 24e8 a02d 5c76 022e 2beb 0034
00000110: e219 2f34 1570 5232 ce7c 7433 2e1a f233
00000120: 84f4 aa34 ca87 5433 8b92 fb31 8e9e 0830
00000130: 20e5 ed2d 8489 be28 e94e b226 0000 0000
00000140: 0000 0000 0000 0000 0000 0000 0000 0000
00000150: 0000 0000 0000 0000 0000 0000 1ddd dc33
00000160: 6c6a 2d33 693e 202f 6545 5c33 9269 1f34
00000170: f094 5d32 0e8c cf33 9448 2f35 cbc4 1736
00000180: 9996 1336 d86d 8335 5ecc a335 5159 ea35
00000190: a217 0f36 26c8 e635 b698 0d36 9e04 1b36
000001a0: 6dd6 ca35 3ed0 2735 a261 9134 c9c9 cf33
000001b0: c9b7 0934 4ec4 7f34 8b68 6d32 0000 0000
000001c0: 0000 0000 0000 0000 0000 0000 f30b 642b
000001d0: 3198 1e2c 5fba 8331 84ce 6033 0f61 cc33
000001e0: 3f24 4f34 201f aa35 e57a 3936 ee3d ab36
000001f0: 9d27 c836 e886 dd36 b0f3 1437 414d 3a37
00000200: f3c9 3e37 40ca 2437 a422 ef36 a46c cf36
00000210: fb1f 8f36 5c3a 3336 7bb4 a935 d242 3d35
00000220: 2495 c334 506c 5c34 a773 c130 0000 0000
00000230: 0000 0000 0000 0000 4856 3825 3395 5b2e
00000240: cc51 d22d b726 2932 4327 8b34 2c1a 0635
00000250: 0d8c c835 3433 7e36 c124 fd36 ebc8 5137
00000260: 099f 7e37 29b8 9737 fd60 bb37 5960 db37
00000270: 4f9e da37 b181 c437 3a38 9937 8052 6437
00000280: 495e 1937 209d 9a36 2cbd 4536 565c 8c35
00000290: cdaa f834 213c e232 db9c 4f2e 7777 7f2f
000002a0: 0000 0000 0000 0000 b45e a42c 89f8 122f
000002b0: 27f9 6d30 d130 2b34 ca3b 0635 60c7 9d35
000002c0: 2378 5e36 7700 1337 f504 6a37 6365 9437
000002d0: 6272 b137 ed13 e037 e861 0038 d354 1138
000002e0: a0d3 1538 cce8 1038 7262 fd37 0e04 d137
000002f0: 545c a137 7097 4137 ce86 db36 102c 2e36
00000300: f717 0935 244a 4b34 4ae3 2331 e4d5 a730
00000310: 0000 0000 0000 0000 316e da30 7b19 9c31
00000320: a6fd 3f32 52c8 0b34 9ff4 bd35 8a96 8936
00000330: f243 0a37 97d8 6637 c9f0 9037 95b5 b237
00000340: 55c0 d637 2c42 0238 740b 1938 6e3a 1d38
00000350: 59d9 2638 98ff 2238 db38 1b38 f0c0 0838
00000360: 3276 ef37 cd66 b337 2c5b 4f37 15b7 b436
00000370: a370 4a35 80f8 4a34 f362 6933 4669 a42c
00000380: 0000 0000 0000 0000 794d 0330 80bf 4a32
00000390: a228 3933 9ad9 7c35 62a6 3d36 4bd5 e536
000003a0: 7141 5737 3b80 8c37 cfa2 b437 3ac9 ef37
000003b0: a9b8 0738 9566 1f38 a763 1b38 786b 0f38
000003c0: a187 1038 af9b 1238 9b0a 1438 f37a 1438
000003d0: 6a73 fd37 c74a cb37 00f4 7c37 9515 e036
000003e0: 3e5b cf35 6564 cd34 1a32 3231 0000 0000
000003f0: 0000 0000 0000 0000 ebbf 5228 0d5d 0e34
0.0 0.0 0.0 0.0 0.0 0.0 0.0 0.0
0.0 0.0 0.0 0.0 0.0 0.0 0.0 0.0
0.0 0.0 0.0 0.0 0.0 0.0 0.0 0.0
0.0 0.0 0.0 0.0 0.0 0.0 0.0 0.0
0.0 0.0 0.0 0.0 0.0 0.0 1.1509695e-20 1.0387514e-18
3.2330845e-19 1.803698e-13 1.0928877e-12 2.9818365e-14 8.805897e-21 2.0808643e-21 0.0 0.0
0.0 0.0 0.0 0.0 0.0 0.0 0.0 0.0
0.0 0.0 0.0 7.682728e-09 8.256906e-10 0.0 5.159676e-08 1.187522e-07
1.0599406e-08 1.8292985e-11 2.9663702e-11 1.2006483e-07 1.6307561e-07 1.2249093e-08 5.6924186e-08 1.1273765e-07
3.1842876e-07 4.9483596e-08 7.3217215e-09 4.970183e-10 2.7045532e-11 2.1153875e-14 1.237262e-15 0.0
0.0 0.0 0.0 0.0 0.0 0.0 0.0 1.02847686e-07
4.037649e-08 1.4574088e-10 5.1285856e-08 1.4846435e-07 1.28977575e-08 9.6646644e-08 6.5298195e-07 2.2615302e-06
2.1992366e-06 9.792229e-07 1.2203925e-06 1.7460353e-06 2.1322417e-06 1.7194586e-06 2.1099527e-06 2.3099487e-06
1.5112579e-06 6.251538e-07 2.7079392e-07 9.675893e-08 1.282598e-07 2.3820141e-07 1.3818986e-08 0.0
0.0 0.0 0.0 8.1018455e-13 2.2537634e-12 3.8337897e-09 5.234189e-08 9.517145e-08
1.9291564e-07 1.2675046e-06 2.7638682e-06 5.1034067e-06 5.965076e-06 6.6020184e-06 8.878225e-06 1.1104451e-05
1.13719025e-05 9.822252e-06 7.1267878e-06 6.181728e-06 4.265455e-06 2.6707048e-06 1.2644008e-06 7.0505223e-07
3.6430094e-07 2.05285e-07 1.4075469e-09 0.0 0.0 0.0 1.5988689e-16 4.992735e-11
2.3910561e-11 9.845897e-09 2.5919334e-07 4.9956975e-07 1.4941921e-06 3.7878754e-06 7.5442663e-06 1.2504151e-05
1.5176608e-05 1.8086359e-05 2.23373e-05 2.61517e-05 2.6061343e-05 2.3425413e-05 1.8265204e-05 1.36090675e-05
9.141463e-06 4.6078494e-06 2.94654e-06 1.0457686e-06 4.6317874e-07 2.6337206e-08 4.7205666e-11 2.3234557e-10
0.0 0.0 4.6716745e-12 1.336692e-10 8.6574165e-10 1.5943375e-07 5.0005895e-07 1.1755437e-06
3.3150507e-06 8.761991e-06 1.3948641e-05 1.7690187e-05 2.1153308e-05 2.671216e-05 3.060876e-05 3.4649693e-05
3.572146e-05 3.4549084e-05 3.0205792e-05 2.491663e-05 1.923569e-05 1.1538956e-05 6.542402e-06 2.5953668e-06
5.107135e-07 1.893282e-07 2.384882e-09 1.2211641e-09 0.0 0.0 1.5892906e-09 4.5430943e-09
1.1175336e-08 1.301826e-07 1.4152791e-06 4.100443e-06 8.241261e-06 1.3759497e-05 1.7278262e-05 2.130381e-05
2.560035e-05 3.1056043e-05 3.648871e-05 3.7486134e-05 3.9779905e-05 3.886185e-05 3.700783e-05 3.2604614e-05
2.854606e-05 2.1386333e-05 1.2359389e-05 5.3857316e-06 7.541477e-07 1.890312e-07 5.4339534e-08 4.672848e-12
0.0 0.0 4.776762e-10 1.180149e-08 4.3110624e-08 9.419397e-07 2.8260042e-06 6.8495624e-06
1.2830235e-05 1.6749013e-05 2.1533486e-05 2.8584724e-05 3.2358486e-05 3.800409e-05 3.704769e-05 3.4193945e-05
3.445859e-05 3.4954104e-05 3.5295827e-05 3.5400455e-05 3.0213694e-05 2.4234307e-05 1.5077181e-05 6.6782327e-06
1.5449257e-06 3.8257272e-07 2.5930889e-09 0.0 0.0 0.0 1.1698957e-14 1.3258632e-07

exp_avg f4 [10]
00000000: d53b b13a 8ec4 4439 6e0b 073b 0400 0000
00000010: 62e0 d0b8 0400 0000 a7c6 86bb fc0d 953b
00000020: 0400 0000 0400 0000
0.001352186 0.00018765239 0.0020606178 6e-45 -9.9600074e-05 6e-45 -0.0041130367 0.004548786
6e-45 6e-45

exp_avg_sq f4 [10]
00000000: f299 a938 f9ce a238 d25f 3639 d41a 212f
00000010: dc9f 1b39 71d4 322f 96c6 0139 9247 1839
00000020: 8f44 3c36 6753 8d2d
8.0872225e-05 7.7633136e-05 0.00017392568 1.4652396e-10 0.00014841504 1.626448e-10 0.00012376378 0.00014522512
2.805409e-06 1.6066882e-11
