ex/lightning_logs/version_1/checkpoints/epoch=1-step=3750.ckpt (torch, 98891 bytes, 6 tensors)

l1.weight f4 [10, 784]
0	0xbc422c4a	-0.01185138
1	0xbb5eb970	-0.003398504
2	0xbce3b92e	-0.027798261
3	0xbc5bfb80	-0.0134266615
4	0xbc3a82f2	-0.011383759
5	0x3c3bce70	0.011462793
6	0x3c91cf8c	0.017799161
7	0xbcedc8fc	-0.0290265
8	0xbbbab65c	-0.0056980085
9	0xbcb44218	-0.022004172
10	0x3b970468	0.0046086796
11	0x3bfc6ec8	0.007703636
12	0xbc12ba7c	-0.008955594
13	0xbd096c65	-0.03355064
14	0x3c945d1e	0.018110808
15	0xbc8deadc	-0.017323904
16	0x3b94aa58	0.004536908
17	0x3d05a7fd	0.03263091
18	0xbc1f0ec0	-0.0097081065
19	0xbcad7923	-0.021175927
20	0x3cd9df98	0.026595876
21	0x3c3292a8	0.010899223
22	0x3b943380	0.004522741
23	0xbce5097a	-0.02795862
24	0x3c46a314	0.012123842
25	0xbc3a9a46	-0.011389321
26	0xbbf8b940	-0.007590443
27	0x3bf21b70	0.0073885247
28	0x3bbaabd8	0.005696755
29	0x3cc03292	0.023461614
30	0xbc4270dc	-0.011867728
31	0xbc5ddabc	-0.01354092
32	0xbcc7fd10	-0.024412662
33	0x3d0348c7	0.032051828
34	0xbcaed39e	-0.021341141
35	0x3c072f94	0.00825109
36	0x3c880942	0.016605977
37	0xbcddcc13	-0.02707485
38	0xbed67a6b	-0.41890272
39	0xbf194991	-0.5987788
40	0xbf071db1	-0.5277968
41	0x3c366c80	0.011134267
42	0xbc472e32	-0.01215701
43	0xbaa50860	-0.0012590997
44	0xbcf27ff5	-0.02960203
45	0x3b7cdfd0	0.003858555
46	0x3ce1ed12	0.027578864
47	0xbc2b80e6	-0.0104677435
48	0xbca25275	-0.01981471
49	0xbb01fe80	-0.0019835532
50	0x3b348400	0.0027544498
51	0x3c2eb848	0.010664053
52	0xbb7786b0	-0.003776949
53	0x3c88cfcc	0.016700648
54	0x3c869c62	0.016431991
55	0x3b67f5e0	0.0035394356
56	0x3cb2ef02	0.021842483
57	0x3cf2163e	0.029551622
58	0xbc9ec667	-0.019381715
59	0x3f036b07	0.51335186
60	0x3f950094	1.1640801
61	0xbf25bd73	-0.647422
62	0xbfdba2e0	-1.715908
63	0xbf492ef8	-0.78587294
64	0xbfb6ab76	-1.4271076
65	0xbf830c40	-1.0238113
66	0xbfadc177	-1.3574666
67	0xbfdf757b	-1.7457727
68	0xbfea3772	-1.829817
69	0xbfe5e6c2	-1.7961047
70	0xc007afea	-2.120112
71	0xc0049171	-2.071377
72	0xbfd2959f	-1.6451911
73	0xbfdc1e45	-1.7196738
74	0xbf89f585	-1.0778052
75	0xbeb3f0bc	-0.35144603
76	0xbef2d0c0	-0.4742489
77	0xbdf965da	-0.1217763
78	0xbdf64096	-0.120240375
79	0x3d0c78cf	0.0342949
80	0xbbbf6154	-0.00584046
81	0xbcc26420	-0.023729384
82	0xbc69d592	-0.014272111
83	0xbc888ae7	-0.016667796
84	0x3c6b7400	0.014370918
85	0x3cc599c0	0.024121165
86	0xbc9e93ce	-0.019357588
87	0x3cce77b8	0.02520357
88	0x3ed65a5e	0.4186582
89	0xbde18768	-0.11012155
90	0xbfc10239	-1.5078803
91	0xbfb7fe60	-1.4374504
92	0xbff0d2d6	-1.8814342
93	0xc03635db	-2.847037
94	0xbf9b1196	-1.2114742
95	0xbf439d80	-0.764122
96	0xbf5ad2d1	-0.8547793
97	0xbf2f75f0	-0.68539333
98	0xbe944bd3	-0.289641
99	0x3c985b5a	0.018598247
100	0x3e56e7c5	0.2098685
101	0xbf7be8f7	-0.9840235
102	0xbfc0a679	-1.5050803
103	0xbf14ce5e	-0.5812739
104	0xbe698e09	-0.22808088
105	0xbfb118c6	-1.3835685
106	0xbfad9a20	-1.356266
107	0xbeac80b4	-0.33691943
108	0xbf9e7cc7	-1.2381829
109	0x3f0ab8aa	0.54188025
110	0xbf18544a	-0.59503615
111	0x3cadb2f0	0.021203488
112	0xbc1cb02a	-0.009563485
113	0x3c45d5b8	0.01207488
114	0xbb8c8618	-0.004288446
115	0x3ec845e6	0.39115828
116	0x3d860359	0.06543607
117	0xbfaadba5	-1.334828
118	0xbf5b3907	-0.8563389
119	0xbf6d8270	-0.92777157
120	0x3d455be8	0.04818335
121	0x3f3e3476	0.742988
122	0x3f092c7a	0.5358349
123	0xbcf44035	-0.029815773
124	0xbf5e7c69	-0.86908585
125	0xbebf2c9e	-0.37338728
126	0xbe26f7eb	-0.1630551
127	0xbe829f26	-0.25512046
128	0xbf49751a	-0.7869431
129	0xbf0ef060	-0.55835533
130	0xbe92f408	-0.28701806
131	0xbf3ec9ec	-0.7452686
132	0xbf40cc00	-0.7531128
133	0xbf496b1d	-0.78679067
134	0xbf7d245d	-0.9888361
135	0xbfd0f159	-1.6323653
136	0xc01383aa	-2.3049111
137	0xbfe9be7b	-1.8261255
138	0xbf1f0a20	-0.62124825
139	0xbcce341a	-0.025171328
140	0x3bfd5578	0.007731136
141	0x3ca0bbd6	0.019620817
142	0xbdb767bd	-0.089553334
143	0x3f130c6f	0.5744085
144	0x3e9eacd5	0.30991235
145	0xbfc498c0	-1.5359116
146	0xbfb19d1a	-1.3876069
147	0xbf76ec3b	-0.9645421
148	0xbde47067	-0.111542515
149	0xbd6b8d6e	-0.057507925
150	0xbd84c5f3	-0.06483068
151	0xbe753e8c	-0.23949641
152	0xbf08e84b	-0.5347945
153	0x3d84cf66	0.064848706
154	0x3f1733f0	0.59063625
155	0x3f580e94	0.84397244
156	0x3eea2d74	0.45737803
157	0xbe9ae6f4	-0.30254328
158	0xbd7d9419	-0.061908815
159	0xbe4a9458	-0.19783151
160	0xbef85b49	-0.48507145
161	0xbf286701	-0.6578217
162	0xbf528b60	-0.8224392
163	0xbff0d2ae	-1.8814294
164	0xc02d1fd6	-2.705068
165	0xc00f3758	-2.237753
166	0xbf1b6f1d	-0.6071642
167	0xbedd30d4	-0.43201315
168	0xbccbe78c	-0.024890684
169	0xbcf4eaaa	-0.029897053
170	0xbf3e6ebc	-0.7438772
171	0xbf4b9b39	-0.79533726
172	0x3f5511ce	0.8323029
173	0xbe0ce43e	-0.13758942
174	0xbf291223	-0.660433
175	0xbec25f88	-0.3796351
176	0xbf40af8a	-0.7526785
177	0xbf8b7628	-1.0895433
178	0xbebadfc1	-0.36498836
179	0xbe01b175	-0.1266535
180	0xbe297828	-0.16549742
181	0x3efcf60a	0.49406463
182	0x3f01f94c	0.5077102
183	0x3eb8336b	0.3597673
184	0x3ea9a2d7	0.3313205
185	0x3f2b59dc	0.6693399
186	0x3e0856ad	0.13314314
187	0xbd173fb3	-0.036925983
188	0xbf05a721	-0.52208143
189	0x3eacd004	0.33752453
190	0x3e1f6493	0.1556571
191	0xbf899017	-1.0747098
192	0xc024a524	-2.5725794
193	0xc05620a0	-3.3457413
194	0xbfc6f6aa	-1.5544026
195	0xbf7c23eb	-0.98492306
196	0xbce586e5	-0.028018424
197	0x3cdfb7b2	0.027309272
198	0xbf485132	-0.78248894
199	0xbf57d550	-0.84309864
200	0xbea1b6bc	-0.31584728
201	0xbd894ee6	-0.06704502
202	0x3e5a4c27	0.21318112
203	0x3e5297ef	0.2056577
204	0xbf2c5be5	-0.6732772
205	0x3d45cf50	0.04829341
206	0x3dd08cee	0.1018313
207	0x3e0b4905	0.13602073
208	0xbd6c3150	-0.057664216
209	0x3ed3d4d0	0.413733
210	0x3d336ad4	0.04380305
211	0x3e8208cd	0.2539734
212	0x3eaf4f0b	0.34239992
213	0x3f36e500	0.71443176
214	0x3ee43a8b	0.44575915
215	0x3ee7c259	0.45265463
216	0x3dde3820	0.10850549
217	0x3d7ba273	0.06143422
218	0xbe8ba9b8	-0.27277923
219	0xbf78664e	-0.97031105
220	0xc024d10b	-2.575259
221	0xc02050fe	-2.5049434
222	0xc007e38f	-2.123264
223	0xbe7996a9	-0.24373879
224	0x3c82f138	0.015984163
225	0xbca560e3	-0.0201878
226	0x3d44cc00	0.048046112
227	0xbf5556c4	-0.8333552
228	0xbfb595b3	-1.418631
229	0xbe08f43c	-0.13374418
230	0x3f39a4f3	0.7251732
231	0x3f0aa7ca	0.54162276
232	0x3de35780	0.11100674
233	0x3efdfc81	0.49606708
234	0x3e90f305	0.2831041
235	0xbf0bc7f3	-0.54601973
236	0x3e6e2074	0.23254567
237	0xbd1d975f	-0.038474437
238	0x3eccb487	0.3998148
239	0x3f14a77c	0.5806806
240	0x3f7d54e1	0.9895764
241	0x3f12d668	0.5735841
242	0x3f7739b1	0.96572405
243	0x3eca4ae0	0.3951025
244	0x3ed2c03b	0.41162285
245	0x3e32ba5c	0.17453903
246	0xbcc9c0e1	-0.024628105
247	0xbca829a2	-0.020527665
248	0xc00b77b3	-2.1791809
249	0xc012e695	-2.2953236
250	0xbff4b092	-1.9116385
251	0xbc5f2a40	-0.013620913
252	0xbc98edc3	-0.018668061
253	0xbcd248b3	-0.025669431
254	0x3e7b323d	0.24530883
255	0xbff91a70	-1.9461193

l1.bias f4 [10]
0	0xc00c335b	-2.1906345
1	0x3ed2355a	0.4105633
2	0x3ea6ad70	0.32554197
3	0xbfbf0ecd	-1.4926392
4	0xbe560195	-0.20899041
5	0xbdb52aca	-0.08846052
6	0xbf8c3a93	-1.0955375
7	0x3fb5a9bf	1.4192427
8	0xbe1f66b1	-0.15566517
9	0xbe03a917	-0.12857471

exp_avg f4 [10, 784]
0	0x00000000	0.0
1	0x00000000	0.0
2	0x00000000	0.0
3	0x00000000	0.0
4	0x00000000	0.0
5	0x00000000	0.0
6	0x00000000	0.0
7	0x00000000	0.0
8	0x00000000	0.0
9	0x00000000	0.0
10	0x00000000	0.0
11	0x00000000	0.0
12	0x00000000	0.0
13	0x00000000	0.0
14	0x00000000	0.0
15	0x00000000	0.0
16	0x00000000	0.0
17	0x00000000	0.0
18	0x00000000	0.0
19	0x00000000	0.0
20	0x00000000	0.0
21	0x00000000	0.0
22	0x00000000	0.0
23	0x00000000	0.0
24	0x00000000	0.0
25	0x00000000	0.0
26	0x00000000	0.0
27	0x00000000	0.0
28	0x00000000	0.0
29	0x00000000	0.0
30	0x00000000	0.0
31	0x00000000	0.0
32	0x00000000	0.0
33	0x00000000	0.0
34	0x00000000	0.0
35	0x00000000	0.0
36	0x00000000	0.0
37	0x00000000	0.0
38	0x00078eef	6.94123e-40
39	0x0047cddc	6.594169e-39
40	0x00280f28	3.678857e-39
41	0x00000000	0.0
42	0x00000000	0.0
43	0x00000000	0.0
44	0x00000000	0.0
45	0x00000000	0.0
46	0x00000000	0.0
47	0x00000000	0.0
48	0x00000000	0.0
49	0x00000000	0.0
50	0x00000000	0.0
51	0x00000000	0.0
52	0x00000000	0.0
53	0x00000000	0.0
54	0x00000000	0.0
55	0x00000000	0.0
56	0x00000000	0.0
57	0x00000000	0.0
58	0x00000000	0.0
59	0x329eb775	1.8477047e-08
60	0x87380941	-1.3845341e-34
61	0x00000004	6e-45
62	0x171c9bff	5.0603213e-25
63	0x172f51bd	5.664872e-25
64	0x1668d5da	1.880829e-25
65	0x00000004	6e-45
66	0x01f28a5c	8.9095296e-38
67	0x0cd076d2	3.2118987e-31
68	0x0f2c2cc7	8.4888785e-30
69	0xb4822ce2	-2.4247043e-07
70	0xb42b9840	-1.5981004e-07
71	0x346e1ab8	2.2175198e-07
72	0x3550fc09	7.78528e-07
73	0x3544db41	7.3334746e-07
74	0x340c6485	1.3075085e-07
75	0x2a6697a0	2.0480709e-13
76	0x2a87cadc	2.412158e-13
77	0x04ad4cfc	4.0742804e-36
78	0x00000004	6e-45
79	0x00000000	0.0
80	0x00000000	0.0
81	0x00000000	0.0
82	0x00000000	0.0
83	0x00000000	0.0
84	0x00000000	0.0
85	0x00000000	0.0
86	0x00000000	0.0
87	0x341a2364	1.4355243e-07
88	0x34064c76	1.2507539e-07
89	0x89819ebf	-3.1204904e-33
90	0x171bea98	5.03793e-25
91	0x172ea060	5.6424854e-25
92	0x3155c9d3	3.1110303e-09
93	0x31f3d1d1	7.096084e-09
94	0xac845d55	-3.7620276e-12
95	0x36c9ea91	6.017574e-06
96	0x37353881	1.08015965e-05
97	0xbac5540c	-0.0015054955
98	0xbaca7dc1	-0.0015448855
99	0xbacf47df	-0.0015814266
100	0xba49ce7b	-0.00076983095
101	0xb6f10539	-7.1829677e-06
102	0xb753d244	-1.2625536e-05
103	0xb76dd225	-1.4175229e-05
104	0xb718a944	-9.099316e-06
105	0xb640be43	-2.8720976e-06
106	0xb57137ad	-8.9860515e-07
107	0xb498d725	-2.8468745e-07
108	0x260ceff6	4.8897465e-16
109	0x13a1afc3	4.081543e-27
110	0x129f259d	1.0043583e-27
111	0x00000000	0.0
112	0x00000000	0.0
113	0x00000000	0.0
114	0x00000000	0.0
115	0x2ef747c3	1.1245007e-10
116	0x2ec2d3b1	8.8597026e-11
117	0x2e179b86	3.4471558e-11
118	0x2e1564c6	3.3968182e-11
119	0x30f5f2d8	1.7895116e-09
120	0xb79364ec	-1.7570761e-05
121	0xb91964e6	-0.00014628805
122	0xb9514862	-0.00019958758
123	0xb9454682	-0.0001881365
124	0xb9220509	-0.000154514
125	0xbaca1139	-0.001541651
126	0xba8ce019	-0.0010747939
127	0xba88661b	-0.0010406406
128	0xb9469772	-0.00018939169
129	0x3a8dce64	0.0010818955
130	0x3a91019a	0.0011063099
131	0x39a20929	0.00030905873
132	0xb7830c2e	-1.5622089e-05
133	0xb686e6d2	-4.020382e-06
134	0xb5ff387a	-1.9015417e-06
135	0xb4859892	-2.488419e-07
136	0xb0172fd9	-5.5001476e-10
137	0x1397873f	3.825112e-27
138	0x11cb2a8d	3.2053977e-28
139	0x00000000	0.0
140	0x00000000	0.0
141	0x00000000	0.0
142	0x22b43804	4.8848407e-18
143	0x2f9f3bc9	2.8964411e-10
144	0x2f7ec610	2.3171531e-10
145	0x2dd836de	2.4580723e-11
146	0xb5288aa5	-6.278663e-07
147	0xb61057e0	-2.1508822e-06
148	0xb8d959f4	-0.000103641214
149	0xb959b460	-0.00020761928
150	0xb9573cd2	-0.00020526655
151	0xb9332e14	-0.00017087936
152	0x39ab6e46	0.00032697822
153	0xb9c4a9c6	-0.00037510524
154	0xba3881cc	-0.0007038384
155	0xba5dce33	-0.0008461207
156	0xb899e7cb	-7.338783e-05
157	0x3961b93b	0.00021526676
158	0x3a9120d0	0.0011072401
159	0x39e294fd	0.00043217084
160	0xb9e2eaa2	-0.00043280894
161	0xb946c9a4	-0.00018957868
162	0xb9863300	-0.0002559647
163	0xb8c84d60	-9.5511554e-05
164	0xb0ebda3c	-1.7160526e-09
165	0x12ce8d77	1.30353015e-27
166	0x00000004	6e-45
167	0x00000004	6e-45
168	0x00000000	0.0
169	0x00000000	0.0
170	0x00000004	6e-45
171	0x00000004	6e-45
172	0xb4f0c8bb	-4.4849534e-07
173	0xb6ccaa74	-6.099517e-06
174	0xb78c5030	-1.672664e-05
175	0xb7bcdfec	-2.2515618e-05
176	0xb90146f6	-0.00012328834
177	0xb97a680a	-0.00023880615
178	0xb8f01113	-0.00011447272
179	0x3a341a74	0.0006870397
180	0x3a611f93	0.0008587774
181	0x3a05c7b1	0.00051033037
182	0xba2508e9	-0.0006295578
183	0xb91ae751	-0.00014772757
184	0x375007b1	1.2399557e-05
185	0x3909d95a	0.00013146308
186	0x3acfa084	0.0015840684
187	0x3ac4db1f	0.0015018916
188	0xb8bae199	-8.911192e-05
189	0xba666c1c	-0.0008789913
190	0xba1fe826	-0.00060999615
191	0xb871e319	-5.767038e-05
192	0x3618a15f	2.2743695e-06
193	0x360e0020	2.1159722e-06
194	0x07fed19a	3.8340865e-34
195	0x80000004	-6e-45
196	0x00000000	0.0
197	0x00000000	0.0
198	0x00000004	6e-45
199	0x00000004	6e-45
200	0xb5ccaa9e	-1.524884e-06
201	0xb7ab3b40	-2.0412379e-05
202	0xb7bdcb6a	-2.2625278e-05
203	0xb88f2d92	-6.8272595e-05
204	0xb9500db1	-0.00019841526
205	0xb935c5ff	-0.00017335264
206	0x3a318aaf	0.00067726796
207	0x3a60aaed	0.0008570392
208	0x3a600212	0.00085452304
209	0x3a6dac7b	0.0009066534
210	0x3a8cc4d6	0.0010739814
211	0x3a04fd99	0.00050731894
212	0x389fdfc7	7.6233926e-05
213	0x38c58b48	9.419635e-05
214	0x3aa2d4c6	0.001242303
215	0x3b04021d	0.0020142861
216	0x3aaba2f8	0.0013094833
217	0xb9f8258b	-0.00047330218
218	0xba91f97a	-0.0011136972
219	0xba204c8f	-0.0006114924
220	0x3990dacb	0.00027628834
221	0x34c0e7fd	3.593158e-07
222	0x09a9d00e	4.0880924e-33
223	0x80000004	-6e-45
224	0x00000000	0.0
225	0x00000000	0.0
226	0xb97e2922	-0.00024238651
227	0xb99925e8	-0.00029210676
228	0xb5e4beae	-1.7042819e-06
229	0xb79376d6	-1.7579103e-05
230	0xb7b86136	-2.1979777e-05
231	0xb8e3d328	-0.000108635344
232	0xb980e69d	-0.00024585883
233	0xb9547664	-0.00020262
234	0x3a05be4b	0.0005101903
235	0x3a9b8570	0.0011865329
236	0x3accf7f7	0.0015637864
237	0x3a8378df	0.0010030529
238	0x3a85c759	0.0010206505
239	0x383470a7	4.302026e-05
240	0xba432946	-0.000744481
241	0xb9d1850b	-0.0003996271
242	0x39116898	0.00013867242
243	0x3a11ec44	0.00055665174
244	0x3acc16fe	0.0015570817
245	0xba05797a	-0.0005091649
246	0xbac20e16	-0.0014805223
247	0xbad0c127	-0.0015926705
248	0x39089f54	0.00013029325
249	0xb035d4b5	-6.614969e-10
250	0x0892f0ac	8.843637e-34
251	0x00000000	0.0
252	0x00000000	0.0
253	0x00000000	0.0
254	0xb8d08ac6	-9.9440615e-05
255	0xb90256bc	-0.00012430077

exp_avg_sq f4 [10, 784]
0	0x00000000	0.0
1	0x00000000	0.0
2	0x00000000	0.0
3	0x00000000	0.0
4	0x00000000	0.0
5	0x00000000	0.0
6	0x00000000	0.0
7	0x00000000	0.0
8	0x00000000	0.0
9	0x00000000	0.0
10	0x00000000	0.0
11	0x00000000	0.0
12	0x00000000	0.0
13	0x00000000	0.0
14	0x00000000	0.0
15	0x00000000	0.0
16	0x00000000	0.0
17	0x00000000	0.0
18	0x00000000	0.0
19	0x00000000	0.0
20	0x00000000	0.0
21	0x00000000	0.0
22	0x00000000	0.0
23	0x00000000	0.0
24	0x00000000	0.0
25	0x00000000	0.0
26	0x00000000	0.0
27	0x00000000	0.0
28	0x00000000	0.0
29	0x00000000	0.0
30	0x00000000	0.0
31	0x00000000	0.0
32	0x00000000	0.0
33	0x00000000	0.0
34	0x00000000	0.0
35	0x00000000	0.0
36	0x00000000	0.0
37	0x00000000	0.0
38	0x2528f560	1.4654813e-16
39	0x286e41fe	1.3225964e-14
40	0x27945056	4.1165352e-15
41	0x00000000	0.0
42	0x00000000	0.0
43	0x00000000	0.0
44	0x00000000	0.0
45	0x00000000	0.0
46	0x00000000	0.0
47	0x00000000	0.0
48	0x00000000	0.0
49	0x00000000	0.0
50	0x00000000	0.0
51	0x00000000	0.0
52	0x00000000	0.0
53	0x00000000	0.0
54	0x00000000	0.0
55	0x00000000	0.0
56	0x00000000	0.0
57	0x00000000	0.0
58	0x00000000	0.0
59	0x307e93ee	9.261488e-10
60	0x2ebee79b	8.681341e-11
61	0x2bc61f1e	1.4077383e-12
62	0x3430ae75	1.6454744e-07
63	0x345dda21	2.0661584e-07
64	0x32eb48ac	2.7390648e-08
65	0x3193d997	4.303e-09
66	0x30003c8e	4.665218e-10
67	0x3407c49e	1.2644384e-07
68	0x343915be	1.7237377e-07
69	0x33fff4a5	1.19188634e-07
70	0x34f714d9	4.6022504e-07
71	0x3322b8b2	3.7886544e-08
72	0x350d8657	5.2722083e-07
73	0x35807b44	9.572618e-07
74	0x33867cff	6.262598e-08
75	0x3271a2b4	1.4065041e-08
76	0x30c0afe1	1.4019826e-09
77	0x2f74148c	2.219897e-10
78	0x2dd3e2c3	2.4088625e-11
79	0x00000000	0.0
80	0x00000000	0.0
81	0x00000000	0.0
82	0x00000000	0.0
83	0x00000000	0.0
84	0x00000000	0.0
85	0x00000000	0.0
86	0x00000000	0.0
87	0x329a44a6	1.7959177e-08
88	0x322606b8	9.663999e-09
89	0x3326e0ca	3.885433e-08
90	0x3458af5f	2.0180367e-07
91	0x3487c8d9	2.5291845e-07
92	0x348e68f3	2.6525922e-07
93	0x354bcae1	7.591862e-07
94	0x357c26fc	9.3934045e-07
95	0x362fff02	2.6225466e-06
96	0x36706908	3.5823923e-06
97	0x3690a8d1	4.3111872e-06
98	0x36a69d71	4.965514e-06
99	0x36a59523	4.934745e-06
100	0x36d52545	6.3522334e-06
101	0x36b13d4b	5.2821465e-06
102	0x36648e82	3.4057598e-06
103	0x36269146	2.4820488e-06
104	0x360307c8	1.952505e-06
105	0x359622ac	1.1185962e-06
106	0x35541981	7.901327e-07
107	0x345b4a20	2.0422931e-07
108	0x319a4d94	4.4908095e-09
109	0x33bdbb07	8.8350184e-08
110	0x31b7b49d	5.3465343e-09
111	0x00000000	0.0
112	0x00000000	0.0
113	0x00000000	0.0
114	0x00000000	0.0
115	0x28ae5f3f	1.9359187e-14
116	0x2c04804a	1.8829543e-12
117	0x332670d5	3.8752507e-08
118	0x34678c09	2.1564496e-07
119	0x35014eff	4.81712e-07
120	0x3600e090	1.92042e-06
121	0x366e0051	3.5464948e-06
122	0x3699bbf8	4.5816378e-06
123	0x36fed01d	7.5940175e-06
124	0x37395c22	1.1048311e-05
125	0x376cd0fc	1.4115354e-05
126	0x378a7052	1.6503185e-05
127	0x37972950	1.801984e-05
128	0x3796a012	1.7955932e-05
129	0x37920870	1.7408485e-05
130	0x376d1543	1.4131251e-05
131	0x374d594d	1.2239744e-05
132	0x37033443	7.820377e-06
133	0x368156a2	3.854585e-06
134	0x35df2b8a	1.6627466e-06
135	0x359b980d	1.1592653e-06
136	0x3485c879	2.4919044e-07
137	0x33b41e78	8.3874454e-08
138	0x3015b13b	5.4457744e-10
139	0x00000000	0.0
140	0x00000000	0.0
141	0x00000000	0.0
142	0x20949490	2.5170486e-19
143	0x2a1a1f47	1.3688799e-13
144	0x2e1d5fc7	3.5782734e-11
145	0x341c4f53	1.455749e-07
146	0x357640ec	9.1736615e-07
147	0x35c59ba6	1.4722943e-06
148	0x3695c688	4.463658e-06
149	0x36f78cc1	7.3775595e-06
150	0x3751e765	1.25112465e-05
151	0x379f88bb	1.9017947e-05
152	0x37c95ff4	2.4005749e-05
153	0x3800fb3c	3.075156e-05
154	0x381e777b	3.778141e-05
155	0x382d2b36	4.1286658e-05
156	0x382adba0	4.07357e-05
157	0x3827527c	3.9892722e-05
158	0x380e2cfe	3.389734e-05
159	0x37e39109	2.7128046e-05
160	0x37956884	1.7810853e-05
161	0x372741e4	9.969317e-06
162	0x36a63ac0	4.954025e-06
163	0x35f27e1a	1.8067105e-06
164	0x34bf363a	3.5615977e-07
165	0x32ccd092	2.3843572e-08
166	0x30bc5dd5	1.3705469e-09
167	0x30e26d03	1.6474647e-09
168	0x00000000	0.0
169	0x00000000	0.0
170	0x2e18de0e	3.4758023e-11
171	0x3087f614	9.892482e-10
172	0x32725e2c	1.4107666e-08
173	0x356d5089	8.8406574e-07
174	0x36266a02	2.4797632e-06
175	0x36a2495f	4.8365177e-06
176	0x3726d6ad	9.944354e-06
177	0x378ee330	1.7033512e-05
178	0x37d127fd	2.4933363e-05
179	0x37fbe014	3.0025876e-05
180	0x38167892	3.5875077e-05
181	0x38352a05	4.3192897e-05
182	0x3854b85a	5.071643e-05
183	0x386fc819	5.7168396e-05
184	0x38755e60	5.8500445e-05
185	0x38736db6	5.803789e-05
186	0x38464a2b	4.7275953e-05
187	0x3825aeaa	3.9501734e-05
188	0x37ff5feb	3.0443034e-05
189	0x37a1e26d	1.9298133e-05
190	0x373b7330	1.1172888e-05
191	0x368a2473	4.1169637e-06
192	0x3506696b	5.0072293e-07
193	0x3430e0d9	1.6473076e-07
194	0x33060778	3.12061e-08
195	0x328d07a9	1.6418044e-08
196	0x00000000	0.0
197	0x00000000	0.0
198	0x324b2527	1.1824603e-08
199	0x32fbfa15	2.933397e-08
200	0x34826661	2.4288877e-07
201	0x35e7b0ab	1.7262258e-06
202	0x36914e4b	4.3304512e-06
203	0x370ccb5e	8.392e-06
204	0x37757bee	1.4631993e-05
205	0x37b6e6c7	2.1803555e-05
206	0x37eccfc6	2.8230144e-05
207	0x381af608	3.6945596e-05
208	0x383791ee	4.3766508e-05
209	0x384e3a4f	4.916853e-05
210	0x38614336	5.3706775e-05
211	0x3870a6c3	5.7375768e-05
212	0x3877b089	5.90538e-05
213	0x3878f169	5.935264e-05
214	0x38677418	5.5182813e-05
215	0x3841dfcb	4.622321e-05
216	0x38233e48	3.8920232e-05
217	0x37f53d8f	2.9234941e-05
218	0x3795b00b	1.784416e-05
219	0x37125869	8.722863e-06
220	0x36128a26	2.1836108e-06
221	0x34fe05a2	4.7315285e-07
222	0x3434e0c0	1.684557e-07
223	0x2f325371	1.621865e-10
224	0x00000000	0.0
225	0x00000000	0.0
226	0x32d025c5	2.4231563e-08
227	0x338c0090	6.51936e-08
228	0x34b4ed00	3.3700053e-07
229	0x361c523d	2.329368e-06
230	0x36e5d13c	6.84909e-06
231	0x3753b18e	1.261792e-05
232	0x37abd7d3	2.048529e-05
233	0x37e08d8f	2.67688e-05
234	0x380d2ace	3.3656885e-05
235	0x38418aab	4.614393e-05
236	0x3854f06b	5.0768645e-05
237	0x38520ff6	5.0082766e-05
238	0x38528d8d	5.019973e-05
239	0x385a9332	5.2112337e-05
240	0x38561c14	5.1047726e-05
241	0x38500516	4.95958e-05
242	0x3853fcea	5.0541865e-05
243	0x3847ad82	4.760689e-05
244	0x382b0d51	4.078198e-05
245	0x380ad6ad	3.3101696e-05
246	0x37b0e7db	2.1088801e-05
247	0x372d5c00	1.0333024e-05
248	0x3667c3db	3.4535685e-06
249	0x3550cdc7	7.7785484e-07
250	0x321402df	8.615387e-09
251	0x00000000	0.0
252	0x00000000	0.0
253	0x00000000	0.0
254	0x316f6e35	3.4841723e-09
255	0x32ea7c24	2.7297638e-08

exp_avg f4 [10]
0	0xba1f7610	-0.00060829613
1	0xbb2a869c	-0.0026020175
2	0xba08050c	-0.00051887403
3	0x3a7b0cc9	0.0009576795
4	0x38482f1f	4.77276e-05
5	0x00000004	6e-45
6	0x3a86080e	0.0010225789
7	0x3b966d17	0.0045906412
8	0x00000004	6e-45
9	0x00000004	6e-45

exp_avg_sq f4 [10]
0	0x390175ec	0.00012346328
1	0x38d8731d	0.00010321124
2	0x397ec445	0.00024296444
3	0x398138bc	0.00024647068
4	0x396bec91	0.00022499474
5	0x32639952	1.3248e-08
6	0x392f40cf	0.00016713444
7	0x3964f2ea	0.00021834267
8	0x33a54e95	7.697705e-08
9	0x33f8d914	1.1587886e-07
